CSE/CASE4/model/weights/weights4.pth (torch, 974303 bytes, 36 tensors)

encoder.layers.0.norm_1.alpha f4 [28]
0	0x3f7ecb17	0.9952864
1	0x3f7ed7ce	0.9954804
2	0x3f7dbf19	0.99119717
3	0x3f7d141e	0.9885882
4	0x3f7febea	0.9996935
5	0x3f7d42ce	0.9893006
6	0x3f7d2604	0.9888613
7	0x3f7ed03a	0.9953648
8	0x3f801992	1.0007803
9	0x3f80a098	1.0049009
10	0x3f7e1900	0.99256897
11	0x3f7e5116	0.9934248
12	0x3f7e70d6	0.99390924
13	0x3f7d3e06	0.98922765
14	0x3f802014	1.000979
15	0x3f7dc940	0.9913521
16	0x3f7d0c98	0.9884734
17	0x3f7e032f	0.9922361
18	0x3f7ca176	0.9868387
19	0x3f7d0e07	0.9884953
20	0x3f7dc33a	0.9912602
21	0x3f7d2167	0.9887909
22	0x3f7d389c	0.98914504
23	0x3f7e54b8	0.9934802
24	0x3f7d7aa4	0.9901526
25	0x3f807ca3	1.0038036
26	0x3f7f07b0	0.99621105
27	0x3f7d2b43	0.9889414

encoder.layers.0.norm_1.bias f4 [28]
0	0xbc4223f8	-0.011849396
1	0x3bc2c713	0.0059441417
2	0xbb7c4f80	-0.0038499534
3	0xbb6435d3	-0.003482212
4	0x3b5fd971	0.0034156705
5	0x3b83666d	0.004010013
6	0xbbb6073d	-0.005555062
7	0x3c0d060e	0.008607401
8	0x3b589987	0.0033050494
9	0x3b826643	0.0039794757
10	0x3b9727d6	0.004612903
11	0xbb6e2472	-0.003633764
12	0x3be8b293	0.007101366
13	0x3b623a2c	0.0034519536
14	0x3bb2ce1d	0.0054566995
15	0xbbc7dde9	-0.006099452
16	0xbb8836cf	-0.0041569243
17	0x3b64a476	0.0034888065
18	0x3b971fc0	0.004611939
19	0x3b996f7b	0.004682479
20	0x39d9cd0a	0.0004154223
21	0x3b85fec0	0.0040892065
22	0xbbb51d78	-0.0055271946
23	0xbbc15c79	-0.005900916
24	0xbb6c1b3b	-0.0036026973
25	0xbb870d8e	-0.004121489
26	0xbadc397c	-0.00168018
27	0x3b864a72	0.00409823

encoder.layers.0.norm_2.alpha f4 [28]
0	0x3f81965a	1.0124009
1	0x3f81c9ce	1.0139711
2	0x3f80dcd6	1.0067394
3	0x3f81630b	1.010835
4	0x3f81646d	1.0108773
5	0x3f80ecb9	1.0072242
6	0x3f811356	1.0084026
7	0x3f80bee4	1.0058255
8	0x3f81962d	1.0123955
9	0x3f81a8a4	1.012959
10	0x3f81b38e	1.0132921
11	0x3f81a3c3	1.0128101
12	0x3f81837a	1.0118248
13	0x3f818a9e	1.0120428
14	0x3f80f27d	1.0074002
15	0x3f81ba76	1.0135028
16	0x3f819dcc	1.0126281
17	0x3f818b2c	1.0120597
18	0x3f814e91	1.0102102
19	0x3f81bac4	1.0135121
20	0x3f810c20	1.0081825
21	0x3f81628b	1.0108198
22	0x3f81cafa	1.0140069
23	0x3f81e20a	1.0147107
24	0x3f81a285	1.0127722
25	0x3f80f4d2	1.0074713
26	0x3f81bdff	1.0136107
27	0x3f81a221	1.0127603

encoder.layers.0.norm_2.bias f4 [28]
0	0xbbbf418c	-0.005836671
1	0x3a0ff6c0	0.00054917857
2	0x3b9a7bcd	0.0047144652
3	0x3ac2e958	0.0014870567
4	0x3b038cb0	0.002007287
5	0x3ba1ca29	0.0049374294
6	0xbbf08166	-0.0073396442
7	0xba8a9ed6	-0.0010575901
8	0xbac3c08b	-0.0014934702
9	0xbabf9570	-0.0014616679
10	0xbaaa42ab	-0.0012989839
11	0xbaa1ff06	-0.0012359328
12	0x3b8ba0fe	0.004261135
13	0xbbdc68dc	-0.0067263674
14	0x3b889263	0.0041678413
15	0xbb508fe4	-0.0031824047
16	0x37a12f54	1.9214734e-05
17	0xba6571cb	-0.0008752613
18	0x3b65f3e6	0.0035088002
19	0xb9137c24	-0.00014065258
20	0x3b49df47	0.003080325
21	0xbb29fd18	-0.002593821
22	0xbb410b7d	-0.002945631
23	0x3a993cfd	0.001169115
24	0x3ba52219	0.005039465
25	0xbb0f8916	-0.0021901778
26	0x3b3e5ffe	0.0029048915
27	0x3a6901bf	0.0008888505

encoder.layers.0.attn.q_linear.weight f4 [28, 28]
0	0xbe9e5ee1	-0.30931762
1	0x3de6120e	0.112339124
2	0xbe67307d	-0.2257709
3	0x3e49f9b1	0.19724156
4	0x3e41d625	0.18929346
5	0xbde41ca2	-0.11138274
6	0x3cdc761a	0.026911784
7	0xbe2c91ad	-0.16852446
8	0xbded03d9	-0.115729995
9	0x3d99719d	0.07492373
10	0xbe6bd4c6	-0.23030385
11	0xbe6a8c04	-0.22904974
12	0xbe87d93a	-0.26532918
13	0xbe16d331	-0.14729
14	0xbe721b45	-0.23643215
15	0x3e98d5f7	0.29850742
16	0xbe8e31f4	-0.27772486
17	0x3e7ef5e9	0.24898495
18	0x3e819b9c	0.25314033
19	0x3e53bd8c	0.20677775
20	0x3e0cb05e	0.13739154
21	0x3d992edc	0.07479641
22	0xbe6b6bd6	-0.22990355
23	0xbe63e049	-0.22253527
24	0x3e5197b3	0.20468025
25	0x3ca29b83	0.019849544
26	0xbd87c8d0	-0.06630099
27	0xbe986d82	-0.29771048
28	0x3da0f592	0.07859339
29	0xbe3b37ed	-0.18283053
30	0x3df81d3e	0.121149525
31	0xbe9bdeb7	-0.30443355
32	0x3d267cb6	0.040646277
33	0xbe67957a	-0.22615615
34	0x3dc3020c	0.09521875
35	0xbde231ce	-0.11044656
36	0xbe88a67c	-0.26689517
37	0xbe86d17a	-0.26331693
38	0xbcd612ed	-0.026132071
39	0xbe888099	-0.26660612
40	0x3d734ebe	0.059401266
41	0x3e5f9c09	0.21836866
42	0xbde2f848	-0.11082512
43	0x3b5e78e9	0.003394658
44	0x3cd3bb8b	0.025846263
45	0xbe91f17b	-0.28504547
46	0xbe9a8981	-0.30183032
47	0x3d4f5d58	0.05062613
48	0x3e32bf3d	0.17455764
49	0x3d9e048b	0.0771571
50	0xbdf553aa	-0.11978848
51	0x3e8c0052	0.27343994
52	0x3cae0916	0.021244567
53	0x3c25d5f0	0.010121807
54	0xbe9fd207	-0.31214926
55	0xbdfb4e53	-0.122707985
56	0x3d4a97a6	0.04946103
57	0x3e6f6be5	0.23381002
58	0xbe72d8c8	-0.23715508
59	0xbe4c7112	-0.19965008
60	0x3e80a44f	0.25125358
61	0xbe3b3928	-0.18283522
62	0xbe80578e	-0.250668
63	0xbea1400a	-0.3149417
64	0xbe4a439f	-0.19752358
65	0xbe595a1d	-0.21225782
66	0x3dd4fa2f	0.10399281
67	0xbe213a12	-0.15744808
68	0xbe8df04d	-0.27722397
69	0x3dbb7d77	0.0915479
70	0x3cbd3c60	0.023100078
71	0x3e2d5e14	0.16930419
72	0xbc3e4e85	-0.0116154
73	0xbd509174	-0.050919965
74	0xbb91caf0	-0.004449241
75	0x3e7185c4	0.23586184
76	0x3aca601b	0.0015440019
77	0x3e885b90	0.26632357
78	0x3dd9f1a5	0.10641793
79	0xbe96f6f3	-0.29485282
80	0x3cb24373	0.021760678
81	0x3dc9c1b4	0.09851399
82	0xbb91b291	-0.0044463356
83	0xbe30f4bc	-0.17280859
84	0x3e9a9f1a	0.3019951
85	0xbe62e6a9	-0.22158302
86	0xbe7d88ee	-0.24759266
87	0x3e9f863d	0.31157103
88	0xbe540999	-0.20706786
89	0x3e8beb8d	0.27328148
90	0x3e35a957	0.1774038
91	0xbd866446	-0.065620944
92	0xbe73ccdc	-0.23808616
93	0xbea84e72	-0.3287235
94	0xbd71f2d7	-0.05906948
95	0x3e14dd22	0.1453748
96	0xbda48c54	-0.08034578
97	0xbd1fd083	-0.03901721
98	0xbd878e8d	-0.06618986
99	0x3c4a430b	0.012345086
100	0xbe566d17	-0.20940052
101	0x3df82b95	0.121176876
102	0xbde1be3d	-0.11022613
103	0x3c4efe30	0.012633845
104	0xbc984f6d	-0.01859256
105	0xbe92f725	-0.2870418
106	0xbe0ec10f	-0.13940834
107	0xbc9782b5	-0.018494943
108	0xbe97abb0	-0.29623175
109	0x3b2a19a7	0.0025955231
110	0x3d0be8f7	0.03415772
111	0x3e9b9cbe	0.30393022
112	0x3e5e3cc3	0.21702866
113	0x3e05c8b6	0.13064846
114	0xbe1e39dd	-0.1545176
115	0x3e9c219f	0.304944
116	0xbd962ccb	-0.07332762
117	0x3e4f6124	0.202519
118	0x3e1d57d7	0.1536554
119	0x3e10c436	0.14137349
120	0xbe8ca22c	-0.27467477
121	0xbe845e9f	-0.2585344
122	0x3e58a66e	0.21157238
123	0x3d8c7026	0.06857328
124	0x3cc5a8f2	0.024128411
125	0x3d93926f	0.07205664
126	0xbe8b91b3	-0.27259597
127	0x3e1d669f	0.15371178
128	0xbdde7f65	-0.10864142
129	0x3e65a7ee	0.22427341
130	0xbdd14db2	-0.10219897
131	0xbcc41b50	-0.023938805
132	0x3e937896	0.28802937
133	0xbe1cbb0e	-0.1530573
134	0x3e1956ec	0.14974564
135	0xbbc4edde	-0.0060098013
136	0x3e4f251e	0.20229003
137	0x3cfa89cf	0.03058329
138	0x3d886914	0.06660667
139	0x3e91dccd	0.2848877
140	0x3e04e0f6	0.12976441
141	0xbd0fe932	-0.0351345
142	0xbd4b6c25	-0.04966368
143	0xbe364331	-0.17799069
144	0xbdd62836	-0.104568884
145	0xbe3f2fc8	-0.18670571
146	0x3e314f0c	0.1731531
147	0xbe9c7f02	-0.3056565
148	0x3dfad9a7	0.12248545
149	0xbea8f3ed	-0.329986
150	0x3e45193a	0.19247904
151	0xbe87fd92	-0.26560646
152	0x3e63cf41	0.2224703
153	0x3e9394c0	0.28824425
154	0x3d7a4c8e	0.061108164
155	0x3d0b4450	0.034000695
156	0x3e9487a5	0.2900974
157	0xbea453a6	-0.3209507
158	0x3e569d65	0.20958479
159	0x3d9a31fd	0.07529066
160	0xbca6667e	-0.020312544
161	0xbd710aa0	-0.058848023
162	0x3e84466d	0.2583498
163	0x3c6707e1	0.014101
164	0x3dc08a9a	0.09401436
165	0x3daa3007	0.08309942
166	0x3d99fcee	0.07518946
167	0x3e8733dc	0.26406753
168	0xbe6a10cc	-0.2285797
169	0x3e9c73de	0.3055715
170	0xbea0ca34	-0.3140427
171	0x3e86f0eb	0.2635568
172	0x3df01d32	0.117243186
173	0xbe10d50f	-0.14143775
174	0x3e2d07c9	0.16897501
175	0x3e827020	0.2547617
176	0x3df45099	0.11929435
177	0x3e6a6483	0.22889905
178	0xbcae6b39	-0.021291362
179	0xbe53c0b9	-0.20678987
180	0x3dc31206	0.09524922
181	0xbcf5dd38	-0.030012712
182	0xbd1ad217	-0.037798014
183	0x3ea2bfa6	0.3178684
184	0xbd398b11	-0.04529864
185	0x3e8c0956	0.27350873
186	0xbc716560	-0.014733642
187	0xbe4d7e39	-0.20067681
188	0x3e2c8ff9	0.16851796
189	0xbe960012	-0.2929693
190	0xbd4445c0	-0.04791808
191	0xbe0d35d2	-0.13790062
192	0xbdb56f15	-0.08859078
193	0x3e8f47db	0.2798451
194	0x3dd253fc	0.10269925
195	0x3e9449ed	0.2896265
196	0x3e8d882a	0.27642947
197	0x3e6189f5	0.22025283
198	0xbe5930b6	-0.21209988
199	0x3e5f97c5	0.21835239
200	0x3d5d508e	0.0540319
201	0xbe7f0c34	-0.24906999
202	0x3dd782ad	0.10522971
203	0x3e747dbe	0.23876092
204	0xbda03618	-0.078228176
205	0xbe7c52f3	-0.24641018
206	0xbe148748	-0.1450473
207	0x3c7480e2	0.014923306
208	0xbd95e198	-0.07318419
209	0x3e6d2abb	0.23160832
210	0xbe92b746	-0.28655452
211	0xbe8518a3	-0.2599536
212	0xbe388e1e	-0.18022963
213	0xbd2f3102	-0.042771347
214	0x3e3d55db	0.18489783
215	0xbbbfc502	-0.0058523426
216	0x3dc740b8	0.09729141
217	0xbdba213c	-0.0908837
218	0xbdf96020	-0.121765375
219	0xbc27fea7	-0.010253585
220	0x3e325d37	0.17418371
221	0xbdd9f50a	-0.106424406
222	0x3d3c467a	0.04596565
223	0x3e85cf88	0.26134896
224	0x3e69eba5	0.22843798
225	0xbe7e425c	-0.24830002
226	0xbe7f3673	-0.24923114
227	0x3c869ae2	0.016431276
228	0xbea6c319	-0.32570723
229	0xbd1a85c7	-0.037725236
230	0xbe162c78	-0.14665401
231	0xbe8d7a7a	-0.27632505
232	0x3dbf72ee	0.09348093
233	0x3e7dfb31	0.24802853
234	0x3e9e4f56	0.30919904
235	0x3dbce697	0.09223669
236	0xbe379300	-0.1792717
237	0x3e9b590a	0.3034137
238	0xbe0e236a	-0.13880697
239	0xbd140b03	-0.036143314
240	0x3e4e1272	0.20124224
241	0xbc8435f1	-0.016139003
242	0xbe0b7825	-0.1362005
243	0xbdccb88f	-0.09996139
244	0x3e23d0a7	0.15997563
245	0xbe74585f	-0.23861836
246	0xbd93fb97	-0.07225721
247	0xbe9f2fe9	-0.3109124
248	0x3e2173db	0.15766852
249	0x3dc70fb9	0.09719796
250	0xbe20db29	-0.15708603
251	0x3e37ad52	0.1793721
252	0xbd7510a4	-0.059830323
253	0xbe3a77f5	-0.18209822
254	0xbd6ea9f7	-0.05826756
255	0x3d848513	0.064706944

encoder.layers.0.attn.q_linear.bias f4 [28]
0	0xbd1cd739	-0.03829119
1	0xbcfa812d	-0.030579174
2	0x3dc0b422	0.094093576
3	0x3db3aa0f	0.087726705
4	0xbb494875	-0.0030713354
5	0x3e2be6e3	0.16787295
6	0x3d2bd1ae	0.041948013
7	0x3de9e047	0.11419731
8	0xbdfbc4e0	-0.1229341
9	0xbe3b6436	-0.18299946
10	0xbd658704	-0.056036964
11	0xbc41cd38	-0.011828713
12	0xbd0de6ab	-0.03464381
13	0x3e16e921	0.14737369
14	0x3df0b55f	0.11753344
15	0xbe21f145	-0.15814693
16	0x3d398a32	0.04529781
17	0x3e228602	0.15871432
18	0x3da1a3f4	0.078926
19	0x3e222e71	0.15838028
20	0x3de51223	0.111851
21	0x3cbf76d4	0.023372091
22	0xbbe0f54b	-0.0068651787
23	0x3e2f7071	0.17132737
24	0x3ddcdbef	0.107841365
25	0x3e0402e2	0.12891725
26	0x3d003963	0.03130473
27	0xbe01aaf8	-0.12662876

encoder.layers.0.attn.v_linear.weight f4 [28, 28]
0	0x3dcc0f0e	0.09963809
1	0xbe7159a1	-0.23569347
2	0xbd60eb41	-0.054911856
3	0xbde8a807	-0.11360174
4	0xbe2fc3d8	-0.17164552
5	0x3e3dd0f0	0.18536735
6	0xbe392f78	-0.18084514
7	0x3e0e62c0	0.13904858
8	0xbe1473c2	-0.14497283
9	0xbda3b8c6	-0.07994227
10	0xbdbe684f	-0.09297239
11	0xbde76e32	-0.11300315
12	0x3e836e35	0.2567002
13	0x3ddeabf4	0.10872641
14	0x3d4292ba	0.04750321
15	0xbc1f0a7f	-0.009707092
16	0xbd048d82	-0.032361515
17	0x3e89221f	0.26783845
18	0xbe96ad34	-0.29429018
19	0x3d61baa5	0.05510964
20	0x3e3815ee	0.17977116
21	0xbe7f9a00	-0.2496109
22	0xbdb25c16	-0.0870897
23	0xbe92db35	-0.28682867
24	0x3dfa3190	0.122164845
25	0x3dc5f7f5	0.09666435
26	0xbcf38f8a	-0.02973153
27	0xbe12c0da	-0.1433138
28	0x3d270460	0.040775657
29	0xbcef28ef	-0.029194323
30	0x3e31cdf9	0.17363729
31	0xbe4ef41b	-0.20210306
32	0xbe35576a	-0.17709127
33	0xbe76c902	-0.24100116
34	0x3e6d3a2c	0.23166722
35	0x3e6b98b0	0.23007464
36	0xbd636faf	-0.05552643
37	0x3e57eae4	0.21085697
38	0xbe694667	-0.22780763
39	0xbe6ff138	-0.23431861
40	0x3df4d38b	0.11954411
41	0x3dd1d42b	0.10245546
42	0xbe550456	-0.20802435
43	0x3e8c78c1	0.27435878
44	0xbd43b532	-0.047780223
45	0xbe3b0cf2	-0.18266657
46	0xbd8a9d54	-0.06768289
47	0xbc46a024	-0.012123141
48	0x3e973126	0.29529685
49	0x3e0b479e	0.13601539
50	0xbe234543	-0.1594439
51	0xbe4dad44	-0.20085627
52	0xbe406c80	-0.1879139
53	0xbe5ec0df	-0.21753262
54	0x3e631544	0.22176081
55	0x3dbd79c3	0.0925174
56	0xbc1987f0	-0.009370789
57	0x3b2ace27	0.0026062818
58	0x3df9f65e	0.12205194
59	0xbd38f45d	-0.045154918
60	0xbc94db1c	-0.018170886
61	0x3ea3cba8	0.31991315
62	0xbe0da20d	-0.13831349
63	0xbe09cbb2	-0.1345661
64	0x3e328dd0	0.1743691
65	0xbe93dcbc	-0.28879344
66	0xbc472911	-0.012155787
67	0x3c593da8	0.013259329
68	0xbe026c31	-0.12736584
69	0xbccaf229	-0.024773674
70	0xbb892e32	-0.004186415
71	0xbe7343d1	-0.23756339
72	0xbdac87be	-0.08424328
73	0x3db7ccde	0.08974622
74	0xbe920db6	-0.28526086
75	0x3eaacb4c	0.33358228
76	0xbc7ef608	-0.015561588
77	0x3d01ad27	0.03165927
78	0x3d924043	0.07141163
79	0x3e63c8e2	0.222446
80	0x3d295b59	0.04134688
81	0x3cf1ca7e	0.029515501
82	0x3e35f301	0.1776848
83	0xbe85f57c	-0.26163852
84	0xbdac7e39	-0.084225126
85	0x3e631879	0.22177304
86	0x3def3ba1	0.11681295
87	0x3e8f38a1	0.27972892
88	0xbe8a1cf4	-0.26975214
89	0x3ea16dda	0.31529123
90	0xbdea73c2	-0.1144786
91	0xbb852a5e	-0.0040638885
92	0x3e3c5a2c	0.18393773
93	0x3e4799bd	0.1949224
94	0xbea334d8	-0.31876254
95	0x3e9eff1e	0.31054014
96	0x3e9cdfe8	0.30639577
97	0x3e8f41d7	0.2797992
98	0x3e6a967c	0.22908968
99	0xbe4cde63	-0.20006709
100	0xbe4d4427	-0.2004553
101	0x3e66206e	0.22473308
102	0x3c9d35ac	0.019190632
103	0xbe978b5a	-0.29598504
104	0xbe99eb42	-0.300623
105	0xbdcbe03b	-0.09954878
106	0xbe613735	-0.21993716
107	0xbe8091c6	-0.25111216
108	0xbe542314	-0.20716506
109	0xbd282128	-0.041047245
110	0x3e8452e1	0.25844482
111	0x3cbdb6fa	0.02315854
112	0xbdd79038	-0.105255544
113	0x3e1119a5	0.14169939
114	0x3e91f1d7	0.28504822
115	0xbe6ccf67	-0.23125993
116	0xbe592917	-0.21207081
117	0xbdd18a23	-0.102314256
118	0x3d9b2974	0.07576266
119	0xbc9106c0	-0.017703414
120	0x3e70bb00	0.23508835
121	0xbd8152f1	-0.06314648
122	0xbe0d90da	-0.13824788
123	0x3d4aa628	0.049474865
124	0x3e876d0e	0.2645039
125	0x3d5ed82d	0.05440538
126	0x3e67e846	0.22647199
127	0xbe76f09d	-0.24115224
128	0xbe7f78c2	-0.24948409
129	0x3e7f49df	0.24930523
130	0x3e746faa	0.23870721
131	0x3e5289e8	0.2056042
132	0xbe170118	-0.14746511
133	0xbd0acdbe	-0.033887617
134	0x3deb2267	0.11481171
135	0x3cce80f1	0.025207968
136	0x3e8e00c5	0.27734962
137	0xbe2ca1b3	-0.16858558
138	0xbd8ec4cf	-0.06971132
139	0x3e8d35d3	0.27580127
140	0x3e25cac1	0.16190626
141	0x3e9bd10f	0.30432937
142	0xbe5961b8	-0.21228683
143	0x3e9b34d7	0.3031375
144	0xbdb5e4fb	-0.08881565
145	0xbea16f2c	-0.3153013
146	0xbe831633	-0.25602874
147	0xbe0a0c83	-0.13481335
148	0xbe0bb357	-0.13642631
149	0x3e950467	0.2910492
150	0x3e44a6a1	0.19204189
151	0x3e9130ab	0.28357443
152	0x3e7de48c	0.24794215
153	0x3c7d5387	0.015461809
154	0x3e8fb8e9	0.28070763
155	0xbc83dd02	-0.016096596
156	0xbe3e8ad1	-0.18607642
157	0xbe84d143	-0.25940904
158	0x3eabf042	0.3358174
159	0xbe95eb26	-0.29280967
160	0xbdafa61d	-0.085766055
161	0xbe910119	-0.2832115
162	0xbe6fe915	-0.23428757
163	0xbd5a092b	-0.0532314
164	0xbe7702c2	-0.24122146
165	0xbe0463bb	-0.12928669
166	0x3e6785cd	0.22609635
167	0xbe3b66d0	-0.18300939
168	0xbea1db95	-0.3161284
169	0xbe9cb020	-0.30603123
170	0x3e91ad47	0.28452513
171	0xbd4958a9	-0.04915682
172	0x3d3d23f6	0.046176873
173	0x3dd77157	0.10519665
174	0x3d826bc3	0.0636821
175	0xbe93b14e	-0.2884621
176	0xbe43c0d4	-0.19116527
177	0xbe03a779	-0.12856854
178	0xbe939018	-0.28820872
179	0xbe2454d2	-0.16047981
180	0xba88f6a5	-0.0010449482
181	0xbe4be245	-0.19910534
182	0x3e2e0c6a	0.16996923
183	0x3c9f33dc	0.019433908
184	0xbe108eb2	-0.14116934
185	0x3e90126e	0.2813906
186	0xbdf68d9b	-0.12038728
187	0xbd09c1ec	-0.033632204
188	0xbe9909a9	-0.29890183
189	0xbe59fe17	-0.21288334
190	0xbd9a871e	-0.07545303
191	0xbc9c34b6	-0.019068103
192	0x3e9959d6	0.29951352
193	0x3e0dd824	0.13851982
194	0x3d97def0	0.07415569
195	0x3e31a21d	0.17346998
196	0xbe7614e9	-0.24031414
197	0x3df6de84	0.1205416
198	0x3d17ae49	0.037031446
199	0x3ddb396b	0.10704311
200	0xbdff552e	-0.124674186
201	0xbdc3817c	-0.095461816
202	0x3e9fc871	0.31207612
203	0x3e6c006a	0.23047033
204	0xbdd63542	-0.10459377
205	0xbeac320f	-0.33631942
206	0xbddf6f78	-0.10909933
207	0x3e9cf9e6	0.30659407
208	0xbd8f8c29	-0.07009155
209	0x3e8d8591	0.27640966
210	0x3bf5ad3c	0.007497458
211	0xbcb640de	-0.022247728
212	0xbe2310d2	-0.15924385
213	0xbe813b8f	-0.25240752
214	0x3dda2854	0.10652223
215	0xbd84db48	-0.06487137
216	0x3ea73137	0.32654735
217	0xbe982806	-0.29718035
218	0xbe2762cb	-0.1634628
219	0xbd898e14	-0.067165524
220	0x3e0db3f5	0.1383818
221	0xbd8db7fb	-0.06919857
222	0x3e3ab11e	0.18231627
223	0xbe737db3	-0.23778419
224	0x3e89845a	0.2685879
225	0x3e31593d	0.17319198
226	0xbe54e9c2	-0.20792297
227	0x3da76ea3	0.08175399
228	0x3d8abb6e	0.067740306
229	0xbd80771a	-0.06272717
230	0x3e77c373	0.24195652
231	0x3e9aea02	0.3025666
232	0xbe9fcb2e	-0.312097
233	0xbdd332ee	-0.103124484
234	0x3b0dc6d6	0.0021633408
235	0x3c967482	0.018366102
236	0x3e80e724	0.25176346
237	0xbe9bc64c	-0.30424726
238	0x3da0f919	0.078600116
239	0x3d9ea938	0.0774712
240	0x3ea28d54	0.3174845
241	0xbcf7bc36	-0.030241113
242	0xbda94141	-0.08264399
243	0x3e8503c0	0.25979424
244	0xbe015fd8	-0.12634218
245	0x3e3d473e	0.18484208
246	0xbe13465d	-0.1438231
247	0x3e460950	0.1933949
248	0xbe405605	-0.18782814
249	0x3e97e924	0.2967006
250	0xbe538a1d	-0.20658155
251	0xbe9ac067	-0.30224916
252	0xbea553ce	-0.322905
253	0x3e0b0986	0.13577852
254	0x3dd2c9f8	0.10292429
255	0xbe808b60	-0.25106335

encoder.layers.0.attn.v_linear.bias f4 [28]
0	0xbe317531	-0.17329861
1	0x3e27c6d2	0.16384438
2	0x3e077278	0.1322726
3	0xbd95d91e	-0.073168024
4	0xbd87605d	-0.06610177
5	0x3df45ffd	0.11932371
6	0x3c642cac	0.013926666
7	0x3dd106d1	0.10206378
8	0xbe1cab95	-0.15299828
9	0xbae635ef	-0.0017563681
10	0x3e3d4f7c	0.18487352
11	0xbdce1e22	-0.10064341
12	0x3cce2764	0.025165267
13	0x3e1eeccb	0.15520017
14	0xbe0baead	-0.13640852
15	0x3d213205	0.039354343
16	0xbd2a2b66	-0.041545294
17	0x3d84e26a	0.064884976
18	0xbcd81ec1	-0.026381852
19	0x3e20d837	0.1570748
20	0x3e1dc30f	0.1540644
21	0x3e1caee8	0.15301096
22	0xbd96e114	-0.07367149
23	0xbe28ca0e	-0.16483328
24	0x3e0610c3	0.13092332
25	0xbdd533a5	-0.10410241
26	0xbd943826	-0.07237272
27	0xbe3afa78	-0.18259609

encoder.layers.0.attn.k_linear.weight f4 [28, 28]
0	0x3e996190	0.29957247
1	0xbe2a9131	-0.16656949
2	0x3e34c1c1	0.17652036
3	0x3da7be94	0.08190647
4	0x3e2a4e99	0.16631545
5	0x3e978f84	0.2960168
6	0xbe0b5bef	-0.13609289
7	0xbdccce30	-0.10000265
8	0xbc658309	-0.014008292
9	0xbcf21c00	-0.029554367
10	0xbdd04f70	-0.101714015
11	0x3e4cc0df	0.1999545
12	0x3da038f7	0.07823365
13	0x3e96ba6a	0.29439098
14	0x3e477f39	0.19482125
15	0x3ea81ecc	0.32835996
16	0xbd678437	-0.056522574
17	0xbd340b85	-0.0439563
18	0xbe3ee799	-0.18643035
19	0x3e85ee02	0.26158148
20	0x3de92ddb	0.11385699
21	0x3c5a149c	0.013310578
22	0x3d96c25d	0.073612906
23	0x3e5a6e24	0.21331078
24	0xbe7d38a9	-0.24728645
25	0xbe635a35	-0.2220238
26	0xbe89d392	-0.26919228
27	0xbda32e14	-0.07967773
28	0xbe33c75f	-0.17556523
29	0x3e1f764d	0.15572472
30	0xbe6657f0	-0.22494483
31	0x3d475d9b	0.048673254
32	0xbdb54ae9	-0.088521786
33	0xbe48d7a9	-0.19613518
34	0xbd9e1e6a	-0.07720645
35	0x3ea5654a	0.3230384
36	0xbe851c38	-0.25998092
37	0xbe88de2f	-0.26732013
38	0x3e19b187	0.15009128
39	0x3e473a0c	0.19455737
40	0x3e96aa93	0.29427013
41	0x3e51d210	0.20490289
42	0x3df54f7a	0.119780496
43	0x3e2d4141	0.16919424
44	0x3df5ba0a	0.11998375
45	0x3ea2eae1	0.31819823
46	0x3e1e1e78	0.1544131
47	0x3e9332ce	0.28749698
48	0xbe990bf6	-0.29891938
49	0xbdac2817	-0.08406084
50	0xbe1612d7	-0.14655624
51	0x3e1f82f5	0.155773
52	0x3e19748d	0.14985867
53	0x3ea597e3	0.32342443
54	0x3da305ec	0.07960114
55	0x3d6dd8ad	0.058067966
56	0xbe51a655	-0.20473607
57	0x3e8eab6d	0.27865162
58	0xbe9dc2d8	-0.30812716
59	0xbe1aaca4	-0.1510492
60	0xbe5c9d5e	-0.21544406
61	0xbe8c320a	-0.27381927
62	0xbcd94d21	-0.026526036
63	0xbde7a365	-0.11310462
64	0xbd8a29f9	-0.06746287
65	0x3e277470	0.16353011
66	0x3d43e96b	0.047830027
67	0x3e134b85	0.14384277
68	0x3e62ca37	0.22147451
69	0x3e859aa3	0.2609454
70	0xbe35121a	-0.17682686
71	0xbe1d2395	-0.15345605
72	0xbe023e9d	-0.12719198
73	0x3e27368c	0.16329402
74	0x3e0ffbb1	0.14060856
75	0x3d3342d0	0.04376489
76	0xbe99902b	-0.29992804
77	0xbe1972a6	-0.14985141
78	0xbe63f4ec	-0.22261399
79	0xbe5ad822	-0.2137151
80	0xbd090dcc	-0.033460423
81	0x3e9bc367	0.30422518
82	0x3cf8ce55	0.030371824
83	0x3e840095	0.25781694
84	0x3e38f53a	0.18062297
85	0x3e910f9a	0.28332216
86	0xbe5a6484	-0.21327406
87	0xbe80e669	-0.2517579
88	0x3e421ad0	0.1895554
89	0x3e5b9b27	0.21445905
90	0x3ea3a5a6	0.31962317
91	0xbd6a1820	-0.057151914
92	0xbe1cc718	-0.15310323
93	0x3e66828d	0.22510739
94	0xbe8bff17	-0.27343056
95	0xbe47c91a	-0.19510308
96	0xbdae423f	-0.08508729
97	0xbd0df535	-0.034657676
98	0xbe998439	-0.2998369
99	0xbd7b038e	-0.061282687
100	0xbdc85502	-0.09781839
101	0x3dbb8c31	0.09157599
102	0xbea02836	-0.3128068
103	0x3ea359bc	0.319044
104	0x3e8262c8	0.2546599
105	0xbe19f819	-0.15036048
106	0xbe480715	-0.19533952
107	0x3d790ea8	0.060804993
108	0x3d25eb0e	0.04050737
109	0xbe911db5	-0.28342977
110	0x3c00b527	0.00785569
111	0x3e981e87	0.2971079
112	0xbd3789be	-0.044809096
113	0x3e447a61	0.19187309
114	0x3e89de69	0.26927498
115	0xbdb8c195	-0.09021298
116	0x3ea0a09c	0.31372535
117	0xbe0f7805	-0.14010628
118	0xbceade1e	-0.028670367
119	0xbdfe9c1d	-0.1243212
120	0xbe167a26	-0.14695033
121	0xbcf1f4ce	-0.029535677
122	0x3dc74a54	0.09730974
123	0x3dd00177	0.101565294
124	0x3e5c2ad6	0.21500716
125	0xbe6e8e77	-0.23296534
126	0xbc145e4c	-0.009055685
127	0xbe744cfc	-0.23857492
128	0xbd083d38	-0.033261508
129	0xbe752b1d	-0.23942228
130	0x3e60b93a	0.21945658
131	0xbea76dd4	-0.3270098
132	0x3e53b840	0.20675755
133	0xbdc5bbed	-0.096549846
134	0x3e84d129	0.25940827
135	0xbe23306f	-0.15936445
136	0xbe53d4b8	-0.20686615
137	0xbe4c85b2	-0.19972876
138	0xbdd9036c	-0.10596356
139	0x3d1700f6	0.03686615
140	0x3dde93f1	0.10868061
141	0x3e694f52	0.22784165
142	0xbce089b1	-0.027409406
143	0xbe2ae535	-0.16688998
144	0x3c9d6b6a	0.019216258
145	0x3b600070	0.0034179948
146	0xbe4d8e3b	-0.20073788
147	0xbdcf26cf	-0.10114824
148	0xbe93a774	-0.28838694
149	0xbea1e7e1	-0.31622222
150	0xbe80a5a5	-0.25126377
151	0xbe874796	-0.26421803
152	0x3e800c0f	0.250092
153	0xbc95fdad	-0.018309439
154	0xbd82d274	-0.06387797
155	0x3e6dd856	0.23227057
156	0xbe573f19	-0.21020164
157	0xbd11e475	-0.035618264
158	0x3df07da7	0.11742716
159	0x3e542a40	0.20719242
160	0x3e813af5	0.25240293
161	0x3e97181f	0.2951059
162	0xbde11d7d	-0.109919526
163	0x3e7d973b	0.24764721
164	0xbe41bbc0	-0.18919277
165	0xbc82b470	-0.01595518
166	0x3cbe8251	0.0232555
167	0x3e337521	0.1752515
168	0xbe3df290	-0.18549562
169	0xbe47fef5	-0.19530852
170	0xbd70c188	-0.058778316
171	0xbdb1a57e	-0.08674143
172	0xbe166b15	-0.14689286
173	0xbd8abf4c	-0.06774768
174	0x3e53b7d0	0.20675588
175	0xbdf39b5c	-0.11894867
176	0x3e8528b9	0.2600763
177	0xbcbc755e	-0.023005184
178	0x3e1bbbdb	0.1520838
179	0xbe510b24	-0.20414406
180	0xbe6f82fe	-0.23389813
181	0xbe6225f8	-0.22084796
182	0x3e8dc72d	0.27691022
183	0xbd93013c	-0.0717797
184	0x3dc50c16	0.09621446
185	0xbd85124e	-0.06497632
186	0x3ea6ee7d	0.32603827
187	0xbc25df79	-0.010124081
188	0x3e0ad260	0.13556814
189	0xbdc8683f	-0.09785508
190	0x3e95f3bb	0.29287514
191	0xbd3691f8	-0.0445728
192	0xbdc7d6f5	-0.09757797
193	0x3e913d88	0.28367257
194	0x3d58a41d	0.052890886
195	0xbdcd0345	-0.10010389
196	0xbe0bebef	-0.1366422
197	0xbd61e1de	-0.055147044
198	0xbe8ed4a1	-0.27896598
199	0xbe9fee13	-0.31236324
200	0xbd0bcce7	-0.034130957
201	0x3cfef540	0.031122804
202	0x3d9c943b	0.0764546
203	0x3e862147	0.26197264
204	0x3d3d4fa4	0.04621853
205	0x3d271855	0.04079469
206	0xbe4dc661	-0.20095207
207	0x3e8a8f50	0.27062464
208	0x3d5fbeca	0.05462531
209	0xbea2a5d6	-0.31767148
210	0xbc99b33c	-0.018762223
211	0xbe2a5adf	-0.16636227
212	0xbe87e903	-0.2654496
213	0xbe932215	-0.2873694
214	0x3d29c72c	0.04144971
215	0xbe300642	-0.17189887
216	0xbdf55372	-0.119788066
217	0xbd960b72	-0.07326402
218	0x3e484556	0.195577
219	0x3e6f8d9d	0.23393865
220	0xbe20d9f5	-0.15708144
221	0x3e0ad901	0.13559343
222	0xbe2f1b29	-0.17100205
223	0xbe51df41	-0.20495321
224	0xbe355df2	-0.17711619
225	0xbe8ef1ad	-0.2791876
226	0xbe53a431	-0.20668103
227	0x3e5540fb	0.2082557
228	0x3d425fe8	0.047454745
229	0xbe77f4e5	-0.24214514
230	0xbe62a388	-0.22132695
231	0x3c903199	0.017601775
232	0xbe965583	-0.29362115
233	0xbe716ccc	-0.23576659
234	0x3ddad260	0.10684657
235	0x3e1c65d6	0.15273222
236	0x3e5922f5	0.21204741
237	0xbe18e81d	-0.14932294
238	0x3dd0ad83	0.10189345
239	0x3dae3a79	0.085072465
240	0x3e03709e	0.12835929
241	0xbe981c19	-0.29708937
242	0xbe4476a6	-0.19185886
243	0xbddacd11	-0.106836446
244	0x3e9e4a32	0.30915982
245	0xbc0af12f	-0.008480354
246	0x3dcbb24a	0.09946115
247	0x3d55bb2b	0.05218045
248	0xbe2478b1	-0.16061665
249	0x3d640b28	0.055674702
250	0x3e92fd5b	0.2870892
251	0xbcec205f	-0.02882403
252	0xbe99fcd8	-0.30075717
253	0x3da20e20	0.079128504
254	0xbdf81841	-0.12114001
255	0xbe87d123	-0.26526746

encoder.layers.0.attn.k_linear.bias f4 [28]
0	0xbd955b81	-0.072928436
1	0xbdf70dc8	-0.120631754
2	0xbdd7870e	-0.105238065
3	0x3e0a4166	0.1350151
4	0x3d22fe67	0.0397934
5	0xbe2146b8	-0.15749633
6	0xbe01aeff	-0.12664412
7	0xbd853d7a	-0.06505866
8	0x3dcf303d	0.101166226
9	0x3dc7c29c	0.09753916
10	0x3dcf6460	0.10126567
11	0x3dd98a54	0.10622087
12	0xbe015bb7	-0.12632643
13	0xbe3e475c	-0.18581909
14	0x3cb4a1f4	0.022049882
15	0x3e320b9b	0.1738724
16	0x3cc6ca44	0.02426637
17	0xbd4e9441	-0.050434355
18	0x3e143a63	0.14475398
19	0xba6de2e4	-0.0009074642
20	0xbd2d609d	-0.042328466
21	0xbe0f25ef	-0.13979314
22	0x3dbfa98a	0.09358509
23	0x3d3e7b2b	0.04650418
24	0xbe3e5571	-0.18587281
25	0xbda1fc56	-0.079094574
26	0xbdb3e136	-0.0878319
27	0xbe0fa1db	-0.14026587

encoder.layers.0.attn.out.weight f4 [28, 28]
0	0x3ea26973	0.31721076
1	0xbe994c4d	-0.29941025
2	0x3e63c704	0.22243887
3	0xbe888a99	-0.26668242
4	0xbe9d1229	-0.30677918
5	0x3e8a0e08	0.2696383
6	0x3e374d0f	0.1790049
7	0x3ea4ac71	0.32162812
8	0x3e65b073	0.22430591
9	0xbe19e826	-0.15029964
10	0xbe9ca473	-0.30594215
11	0xbc5a5162	-0.013325067
12	0x3dcf448e	0.10120498
13	0xbcc92193	-0.024552142
14	0x3c6df829	0.014524498
15	0xbe8023d9	-0.2502735
16	0x3de68f62	0.11257817
17	0x3e92c4e0	0.2866583
18	0x3e66a559	0.22524013
19	0x3e2768bc	0.16348547
20	0x3de233bc	0.11045024
21	0x3e408219	0.18799628
22	0xbdfa1b3d	-0.122122265
23	0x3e371f76	0.17883095
24	0xbdd1de94	-0.102475315
25	0xbe05c169	-0.13062061
26	0x3c848394	0.016176023
27	0x3daf88ff	0.08571052
28	0x3decda29	0.11565048
29	0x3e5ae49d	0.21376272
30	0xbe96a35c	-0.29421508
31	0xbdeab296	-0.11459844
32	0xbe4bbb39	-0.19895639
33	0xbd3a0818	-0.045417875
34	0xbd75ef1f	-0.060042497
35	0xbe946e73	-0.28990516
36	0x3e039ae3	0.12852053
37	0x3e7d925f	0.24762867
38	0x3e333fa1	0.17504741
39	0x3e22ad75	0.15886481
40	0x3e2833e2	0.16426042
41	0x3d7c131b	0.061541658
42	0x3d5ddd48	0.05416611
43	0x3e2883e6	0.16456565
44	0x3ea4d97c	0.32197177
45	0xbe87b789	-0.26507214
46	0x3e81aa03	0.2532502
47	0x3ea3bc39	0.3197954
48	0x3dd7fb8d	0.105460264
49	0x3e3aee20	0.182549
50	0xbe4ecb12	-0.20194653
51	0x3e824d89	0.2544978
52	0xbda349ef	-0.07973086
53	0x3e5a867c	0.21340364
54	0x3d582c9a	0.05277691
55	0xbe050ac0	-0.12992382
56	0xbe8000ef	-0.25000712
57	0x3ccd8241	0.025086524
58	0x3e2ae83a	0.1669015
59	0xbc93b7de	-0.01803201
60	0xbddd8d0f	-0.108179204
61	0x3e02c488	0.12770283
62	0x3e30b1c0	0.17255306
63	0xbe9802cc	-0.29689634
64	0xbe2cd95a	-0.16879788
65	0x3bb5204d	0.005527532
66	0xbe3a319d	-0.18182988
67	0xbe8d38b7	-0.27582332
68	0xbe7c8118	-0.2465862
69	0xbe7c24f0	-0.24623466
70	0xbd99a0e4	-0.075013906
71	0xbd354a8c	-0.044260547
72	0xbe96f440	-0.29483223
73	0x3cd6e451	0.026231917
74	0xbdf1c34d	-0.11804829
75	0x3e009aa0	0.12558985
76	0x3e72f591	0.23726489
77	0xbe66139b	-0.22468416
78	0xbdb1d0fb	-0.08682438
79	0x3e606964	0.21915203
80	0xbe95e140	-0.29273415
81	0xbe8b6b47	-0.27230284
82	0x3d9e4e19	0.0772974
83	0x3df5fc87	0.120110564
84	0x3c87bb7f	0.016568897
85	0x3e0f7608	0.14009869
86	0xbd24360e	-0.040090613
87	0x3e9981bf	0.299818
88	0x3e66496a	0.22488943
89	0x3d31342d	0.04326265
90	0xbe81cdc3	-0.25352296
91	0x3e3f97d5	0.18710263
92	0xbe7ccd60	-0.2468772
93	0x3db9626f	0.09051978
94	0xbce0bac8	-0.027432814
95	0xbd395de8	-0.04525557
96	0x3d8cce49	0.06875283
97	0x3e5e67a0	0.21719217
98	0x3e7cc35e	0.24683902
99	0x3e9bb792	0.3041349
100	0xbe4b1a0b	-0.19834153
101	0x3ea4a93a	0.3216036
102	0x3ea20db9	0.31651095
103	0x3e228977	0.15872751
104	0x3cad40cc	0.021149062
105	0x3cfebfce	0.031097319
106	0xbc41bf59	-0.011825406
107	0xbc16fe77	-0.009215943
108	0xbc9f0491	-0.019411357
109	0x3d6f317c	0.0583968
110	0x3e09329b	0.1339821
111	0x3e81482f	0.25250384
112	0x3e1849d2	0.1487191
113	0xbe91543e	-0.28384584
114	0x3dbfc491	0.09363664
115	0xbd31f2b5	-0.043444354
116	0xbe02749d	-0.12739797
117	0x3e2ec32f	0.17066644
118	0x3e31d704	0.17367178
119	0xbdce8685	-0.10084251
120	0xbc967d74	-0.018370368
121	0x3df27c0d	0.11840067
122	0xbe9f6607	-0.31132528
123	0x3df3b0aa	0.1189893
124	0xbcabedbc	-0.020987384
125	0x3daafcff	0.083490364
126	0xbe3d4f28	-0.18487227
127	0xbd8a1e41	-0.06744052
128	0x3dda2ae7	0.10652714
129	0xbdb5ee48	-0.08883339
130	0xbe06f242	-0.13178352
131	0xbdaf50ea	-0.08560355
132	0x3bfef9a9	0.0077812267
133	0x3d29b364	0.041430846
134	0xbd98b29a	-0.074559405
135	0xbd416c35	-0.047222335
136	0xbd811ff4	-0.06304923
137	0xbd9c6d4c	-0.07638034
138	0xbe8011ec	-0.25013673
139	0x3e47aaf9	0.19498815
140	0xbe830048	-0.25586152
141	0xbcb64560	-0.022249877
142	0x3e83abc1	0.25716975
143	0xbea12a18	-0.31477427
144	0x3e2c6267	0.16834413
145	0xbe8b1a38	-0.2716844
146	0x3ea0b1f1	0.3138576
147	0xbdc35217	-0.09537142
148	0xbe9d49db	-0.3072041
149	0x3def065b	0.11671134
150	0x3e7aedc6	0.24504766
151	0x3dc6729b	0.09689828
152	0x3e202fc2	0.15643218
153	0x3d6a19e1	0.057153586
154	0xbe9c96c2	-0.3058377
155	0xbe1b3e4c	-0.15160483
156	0xbe35cd38	-0.17754066
157	0xbe5198a4	-0.20468384
158	0xbd9ed445	-0.07755331
159	0x3e6a1830	0.2286079
160	0x3e4bd697	0.19906078
161	0xbdc10864	-0.094254285
162	0x3e428ead	0.18999739
163	0xbe9b1e89	-0.30296734
164	0xbe9c1ed5	-0.30492273
165	0x3e1726cf	0.14760898
166	0x3e64489d	0.22293325
167	0x3e738705	0.23781975
168	0xbd1f38d5	-0.03887256
169	0xbc1d07cd	-0.009584379
170	0x3cc3adbd	0.023886556
171	0xbe842804	-0.2581178
172	0x3d326db4	0.043561652
173	0x3e3c8218	0.18409002
174	0x3e86a1f2	0.2629543
175	0x3e80f53d	0.25187102
176	0xbd20f4d6	-0.039295994
177	0x3e4719c2	0.1944342
178	0x3e73b1b4	0.23798257
179	0x3e747d3e	0.23875901
180	0xbb5626d4	-0.0032676952
181	0xbdef34f5	-0.116800226
182	0x3e740b1e	0.23832366
183	0x3d86280b	0.06550606
184	0x3e976d83	0.29575738
185	0x3e459fae	0.19299194
186	0x3c35bdfe	0.011092661
187	0xbcf46f6f	-0.029838292
188	0xbeab4de0	-0.3345785
189	0xbe7106d9	-0.23537768
190	0xbd32c98c	-0.04364924
191	0x3dc895a1	0.097941644
192	0x3e92caf5	0.2867047
193	0x3d2539da	0.040338375
194	0x3df89874	0.12138453
195	0xbe088d5a	-0.13335171
196	0x3e10bcec	0.14134568
197	0xbe9b411b	-0.3032311
198	0x3e3ced78	0.18449962
199	0xbd808773	-0.06275835
200	0x3e100af6	0.14066681
201	0xbe374471	-0.17897202
202	0x3e960866	0.29303282
203	0x3e55cf92	0.20879963
204	0x3ddfe217	0.10931795
205	0xbda68b13	-0.08131995
206	0x3df34727	0.118788056
207	0x3e4e650b	0.20155732
208	0xbd7c421a	-0.061586477
209	0xbe259bab	-0.16172664
210	0xbd34d674	-0.04414983
211	0x3e31f651	0.17379119
212	0xbdb88533	-0.09009781
213	0xbe78b574	-0.24287969
214	0xbe24a053	-0.16076784
215	0x3e4090ca	0.18805233
216	0xbe26714d	-0.16254158
217	0xbe37a189	-0.17932715
218	0xbe959e90	-0.29222536
219	0x3e27dab2	0.1639202
220	0xbe452aa9	-0.19254555
221	0xbc2529fb	-0.01008081
222	0x3e998b53	0.29989108
223	0xbdfd339c	-0.12363359
224	0xbdefc494	-0.11707416
225	0x3d93b1d3	0.07211652
226	0x3e88bf1a	0.267083
227	0x3e40809a	0.18799058
228	0xbd512eed	-0.051070143
229	0xbe54e86e	-0.2079179
230	0x3e716e53	0.23577242
231	0xbd6843c0	-0.056705236
232	0x3bda0c2e	0.006654284
233	0xbe74cac5	-0.23905475
234	0x3e7dfc31	0.24803235
235	0xbe4b5279	-0.1985568
236	0xbd6c0258	-0.057619423
237	0xbdc765ad	-0.0973619
238	0xbe78c36e	-0.242933
239	0xbe5f5c42	-0.21812537
240	0x3d8c288c	0.06843671
241	0x3de67e86	0.11254601
242	0x3d98d42a	0.07462342
243	0x3e8c08f2	0.27350575
244	0x3e9e49f0	0.30915785
245	0xbcafb6dd	-0.0214495
246	0xbe0748d0	-0.1321137
247	0xbdb9acce	-0.09066163
248	0x3e98376d	0.29729787
249	0xbe474a23	-0.19461875
250	0xbda521f2	-0.08063115
251	0xbcb36af6	-0.021901589
252	0x3e1a7b81	0.15086176
253	0x3e3048be	0.17215249
254	0xbdb0095b	-0.085955344
255	0x3db7c9d0	0.089740396

encoder.layers.0.attn.out.bias f4 [28]
0	0xbe1e35ff	-0.15450285
1	0xbe19f4d4	-0.15034801
2	0xbe35bcf5	-0.17747863
3	0x3d4b77e6	0.04967489
4	0x3dfc0e6f	0.123074405
5	0xbdb5f25a	-0.088841155
6	0xbd9b5973	-0.075854205
7	0xbd1f5dc8	-0.038907796
8	0xbb0ed6b7	-0.002179546
9	0xbd005809	-0.031333957
10	0xbd376c3c	-0.044780955
11	0xbd49bd2f	-0.049252685
12	0xbdad06e0	-0.08448577
13	0x3dcfa856	0.101395294
14	0x3dd2677c	0.10273644
15	0xbdf1556c	-0.11783871
16	0xbd010e7c	-0.031507954
17	0x3c29b979	0.0103591615
18	0x3e23c272	0.15992144
19	0x3d99857b	0.074961625
20	0x3dc4df5f	0.09612917
21	0xbe1f1de5	-0.15538748
22	0x3e27ec38	0.16398704
23	0x3e3ccb6d	0.18436976
24	0x3db8bcc9	0.09020383
25	0x3d07219b	0.032991033
26	0x3da353c5	0.07974962
27	0x3d216ea9	0.039412174

encoder.layers.0.ff.linear_1.weight f4 [2048, 28]
0	0xbd2763b7	-0.04086658
1	0x3d3a5428	0.045490414
2	0x3d4077eb	0.046989363
3	0x3d129834	0.035789683
4	0x3d62bf5c	0.055358276
5	0xbd31d2e1	-0.043414
6	0x3c8d05f2	0.017214749
7	0x3d2f27d6	0.0427626
8	0x3d6937f5	0.05693813
9	0xbd21e880	-0.03952837
10	0xbc55c6df	-0.013047903
11	0xbcc1b329	-0.023645
12	0xbd45693d	-0.048196066
13	0xbcd6b232	-0.026208017
14	0xbc8807d4	-0.016605295
15	0xbd085e34	-0.033292964
16	0xbd150e64	-0.036390677
17	0xbb1c3195	-0.0023833264
18	0xbd00eec9	-0.031477723
19	0x3c32fa37	0.010923914
20	0x3b944a80	0.0045254827
21	0x3d4df5b6	0.050283156
22	0x3c7b55af	0.015340253
23	0x3d645313	0.05574329
24	0x3d85ae0e	0.06527339
25	0x3ba81829	0.0051298332
26	0xbd2f83c3	-0.042850267
27	0x3b1d08fc	0.0023961654
28	0x3d320e3c	0.043470606
29	0xbd22d58b	-0.03975443
30	0xbc0a508b	-0.0084420545
31	0xbd56b15d	-0.05241524
32	0x3d0d2614	0.034460142
33	0x3d6b0e2a	0.057386555
34	0x3c002e5d	0.007823554
35	0xbc45f7a1	-0.012082965
36	0xbc835443	-0.01603139
37	0xbcbb7568	-0.022883132
38	0x3c83a623	0.016070431
39	0xbd2e2e3c	-0.04252456
40	0xbd3e3389	-0.046435867
41	0x3d6bc6ca	0.057562627
42	0x3d3a10a8	0.04542604
43	0x3ceaa7c0	0.028644443
44	0x3c3a68f0	0.011377558
45	0xbd208027	-0.039184716
46	0x3d3c6a92	0.04600007
47	0xbcd9ebaa	-0.026601631
48	0xbd055ef3	-0.032561254
49	0xbcb77806	-0.022396099
50	0x3d216461	0.03940237
51	0x3d3e408b	0.04644827
52	0xbd2c29c6	-0.042032026
53	0xbca353e1	-0.019937458
54	0x3d56207f	0.052277084
55	0xbc812b96	-0.015767854
56	0xbbaab482	-0.0052095065
57	0xbceb79c1	-0.02874458
58	0x3c7883bb	0.015168126
59	0xbd40c266	-0.047060393
60	0xbc7caf72	-0.015422689
61	0xbc925918	-0.017864749
62	0xbbd6a837	-0.0065508145
63	0xbccbe794	-0.024890698
64	0x3d24620a	0.04013256
65	0x3c7ef316	0.015560886
66	0xbd19a33c	-0.037509188
67	0x3c6ea7f6	0.014566412
68	0xbd0c9dad	-0.03433006
69	0x3c85ea4d	0.016347075
70	0x3d0796a6	0.033102654
71	0x3d716f4a	0.058944024
72	0xbd417538	-0.04723093
73	0xbcbe629f	-0.023240386
74	0xbc4b1d02	-0.012397053
75	0x3d3559c2	0.044275053
76	0x3cd37592	0.025812898
77	0x3bc304d7	0.0059515047
78	0x3cc95747	0.02457775
79	0xbd14e78d	-0.036353637
80	0xbc809daa	-0.01570018
81	0x3d007117	0.03135785
82	0xbd1a1ec6	-0.037627004
83	0x3b2a707e	0.0026006992
84	0x3c8b26a8	0.016986206
85	0xbd3511da	-0.044206478
86	0x3d2e77cc	0.042594716
87	0x3c21c359	0.009873235
88	0xbcbe09c5	-0.023198018
89	0x3cf2a236	0.029618364
90	0xbaaafd6b	-0.0013045495
91	0xbca5d759	-0.020244287
92	0xbd2e9707	-0.0426245
93	0xbcabf4fb	-0.02099084
94	0x3ccf5c4c	0.025312565
95	0x3d6eb711	0.058280054
96	0xbd30b820	-0.043144345
97	0xbc420134	-0.011841107
98	0xbc8e0679	-0.01733707
99	0x3d0a0f2a	0.033705868
100	0xbcc5b676	-0.024134856
101	0x3cdd17f8	0.026988968
102	0xbd0fa6df	-0.03507125
103	0xbd28e00e	-0.0412293
104	0x3c96cb1b	0.018407395
105	0x3d485b68	0.048915297
106	0x3cfc89d6	0.030827444
107	0xbd70892f	-0.05872458
108	0xbd21db78	-0.039515942
109	0x3d468cb3	0.048474025
110	0xbd85b99f	-0.06529545
111	0x3b9eed4e	0.0048500663
112	0xbc96581e	-0.018352564
113	0xbd4de02e	-0.050262623
114	0xbc730a63	-0.014834019
115	0xbc90d643	-0.017680293
116	0x3c943330	0.018090814
117	0xbd0565f4	-0.032567933
118	0xbd0e72c4	-0.034777418
119	0x3c8b07a1	0.016971411
120	0xbb699aeb	-0.0035645317
121	0xbc30cad8	-0.010790549
122	0xb93a045b	-0.00017739965
123	0xbcb8d499	-0.022562312
124	0x3d26a10d	0.040680934
125	0x3d289337	0.04115602
126	0xbafd6269	-0.0019331697
127	0x3cf2d986	0.029644739
128	0x3c80ff28	0.015746668
129	0x3b7d2e07	0.003863217
130	0xbc860e8f	-0.016364364
131	0x3cc8055e	0.024416622
132	0xbbc2bcf6	-0.005942936
133	0xbcff8e38	-0.031195745
134	0xbd1b82c5	-0.03796651
135	0xbd1fe4cb	-0.039036553
136	0xbcee51fc	-0.029091828
137	0xbd477787	-0.048697975
138	0xbd47b0f5	-0.048752744
139	0xbbd3b43a	-0.0064606937
140	0x3d63551b	0.055501085
141	0x3d1fd923	0.039025437
142	0xbbf28f0f	-0.007402308
143	0x3d03ddac	0.032193825
144	0xbd28a061	-0.041168574
145	0x3ce73873	0.02822516
146	0x3d169293	0.036760878
147	0xbce37f3d	-0.027770633
148	0xbcc97b55	-0.024594942
149	0xbd30f69a	-0.043203928
150	0xbc0385dd	-0.008027521
151	0x3cf638e7	0.03005643
152	0xbd76b88f	-0.060234603
153	0xbc786a35	-0.0151620405
154	0x3d4b886b	0.049690645
155	0x3d775a1d	0.060388673
156	0x3c224591	0.009904281
157	0x3d1f27c7	0.038856294
158	0x3cbc5045	0.022987494
159	0xbd1c1eec	-0.038115427
160	0x3cb0b319	0.021569775
161	0x3d1294e5	0.03578653
162	0xbd0ca2ae	-0.03433483
163	0x3ac670ce	0.001513982
164	0x3d0f3889	0.034966026
165	0xbd1536e9	-0.03642932
166	0xbd749568	-0.059712797
167	0xbcc40858	-0.02392976
168	0x3d0bc807	0.034126308
169	0xba80357d	-0.0009781566
170	0x3cca0ef7	0.024665339
171	0x3cdddf62	0.027084056
172	0x3c032ff5	0.008007039
173	0xbc0d3918	-0.008619569
174	0x3d43eaa3	0.04783119
175	0x3d62c7e3	0.055366408
176	0x3c185079	0.00929653
177	0xbd846fbd	-0.06466625
178	0xbcb9f125	-0.022697994
179	0x3d52f568	0.05150357
180	0xbd3201c2	-0.043458708
181	0xbd2acc8e	-0.041698985
182	0x3c322dfb	0.01087522
183	0x3d2e0467	0.042484667
184	0x3c8a25ce	0.01686373
185	0xbd05facc	-0.03270988
186	0x3d04652d	0.03232305
187	0xbd2c4815	-0.04206093
188	0xbc8cceca	-0.017188448
189	0xbd7c7944	-0.061639085
190	0x3b5628ad	0.0032678053
191	0x3d1fe652	0.03903801
192	0xbc5c539e	-0.01344767
193	0x3d59ce21	0.053175095
194	0x3ab741af	0.0013981367
195	0x3d0e85bd	0.03479551
196	0x3d287dd7	0.041135635
197	0x3d5186e9	0.05115405
198	0xbc1c0654	-0.009522993
199	0xbc27e3c2	-0.010247173
200	0x3d07af28	0.033126026
201	0xbd179ee4	-0.037016764
202	0x3d2c8284	0.042116657
203	0x3b0d8b96	0.0021598092
204	0x3d40f5ce	0.047109418
205	0xbb86e675	-0.004116828
206	0xbbbee9cb	-0.00582621
207	0xbcb44c02	-0.0220089
208	0xbd582610	-0.052770674
209	0x3d430011	0.047607485
210	0x3c596406	0.013268476
211	0x3c2419ee	0.010015948
212	0x3d011a7a	0.03151939
213	0xbd15933d	-0.03651737
214	0x3d1a7422	0.03770841
215	0x3c7a4fd2	0.01527782
216	0xbceb07bd	-0.028690213
217	0x3d650366	0.055911444
218	0x3d50b64f	0.050955113
219	0xbd6ee0b7	-0.058319774
220	0xbd3e6566	-0.04648342
221	0x3d0d00eb	0.034424704
222	0x3d41acec	0.04728405
223	0x3c728f78	0.014804713
224	0x3d44bc26	0.048030995
225	0xbc9ad24c	-0.018899105
226	0xbcc2c0dd	-0.023773605
227	0xbd0fe006	-0.035125755
228	0xbc2099ad	-0.009802264
229	0xbbe37dc9	-0.006942485
230	0x3b280a6e	0.0025640982
231	0xbc89bcf4	-0.016813733
232	0xbc522b66	-0.01282773
233	0xbc9b773c	-0.018977754
234	0x3cf9f240	0.030511022
235	0xba13a013	-0.0005631458
236	0xbd275552	-0.040852852
237	0x3d098c5b	0.03358112
238	0xbd0db6e3	-0.034598242
239	0x3c8bc560	0.01706189
240	0x3d0d8c41	0.034557585
241	0xbc7ec416	-0.01554968
242	0x3a0ea0bd	0.0005440822
243	0xb9390d75	-0.00017647988
244	0xbc107166	-0.008816099
245	0x3d00decc	0.031462476
246	0xbb6554e2	-0.003499322
247	0x3d2c0ccd	0.042004395
248	0xbd7281fb	-0.05920599
249	0x3c212d07	0.0098373955
250	0xbd04e5c2	-0.032445677
251	0xbd28492e	-0.041085415
252	0x3cb96103	0.022629267
253	0xbc3349b2	-0.010942863
254	0x3bfd20ff	0.0077248807
255	0xbd0a685d	-0.033790935

encoder.layers.0.ff.linear_1.bias f4 [2048]
0	0xbe2f8d2e	-0.171437
1	0x3d861e2f	0.06548726
2	0xbd1adadc	-0.037806377
3	0xbddc847a	-0.107674554
4	0x3e322465	0.17396696
5	0xbd57b15d	-0.05265938
6	0xbe356ba9	-0.1771685
7	0xbda17364	-0.07883337
8	0xbcb9bee2	-0.022674028
9	0x3e1f5eb1	0.15563466
10	0x3e11466e	0.14187023
11	0xbcd8fb5b	-0.026487043
12	0xbd8f8d61	-0.07009388
13	0xbc8ba1cc	-0.017044924
14	0xbe024618	-0.12722051
15	0x3e0c6958	0.1371206
16	0x3b4807c5	0.003052221
17	0x3d228b68	0.03968373
18	0xbdc9f45c	-0.09861061
19	0xbdf4860d	-0.11939631
20	0xbe269842	-0.16269019
21	0x3e14ec89	0.14543356
22	0xbd0c53ff	-0.034259792
23	0xbde41308	-0.111364424
24	0x3dcf6b7e	0.101279244
25	0xbcddb7c6	-0.027065169
26	0x3dbe0e63	0.09280088
27	0xbd544002	-0.051818855
28	0x3d974851	0.0738684
29	0x3da656fc	0.0812206
30	0xbe1bbb0a	-0.15208068
31	0xbd34dcec	-0.044156
32	0x3d50076d	0.05078833
33	0xbe09c588	-0.13454258
34	0xbe0d2c2f	-0.13786386
35	0x3e36eae8	0.17863047
36	0x3e1e6094	0.15466529
37	0x3e1fde3f	0.15612124
38	0x3cd7b298	0.026330277
39	0x3df38a4d	0.11891613
40	0x3d8fd1c3	0.07022431
41	0xbca954eb	-0.020670375
42	0xbe279df7	-0.16368853
43	0x3dca782d	0.09886203
44	0xbdf899f5	-0.1213874
45	0x3dfeb623	0.124370836
46	0x3c78f490	0.015195027
47	0x3d93c68d	0.07215605
48	0xbce04954	-0.027378716
49	0x3e008d23	0.1255384
50	0xbd61f022	-0.05516065
51	0xbdfe186a	-0.12407
52	0x3deedef2	0.11663617
53	0x3cfc8a07	0.030827535
54	0xbd89ac29	-0.0672229
55	0xbda18d92	-0.078883305
56	0xbe1d0eaf	-0.15337633
57	0xbd291506	-0.041279815
58	0x3e144134	0.14477998
59	0xba5ae860	-0.00083506666
60	0x3e16396b	0.1467034
61	0xbdc086d0	-0.094007134
62	0xbc330485	-0.0109263705
63	0xbe06a65c	-0.13149399
64	0xbe15dc23	-0.14634757
65	0x3ceaaaaa	0.028645832
66	0x3d38145e	0.0449413
67	0xbe32e8d5	-0.17471631
68	0xbd654f6f	-0.055983957
69	0x3ccb7f13	0.024840867
70	0x3e12563e	0.14290711
71	0xbd7d1b29	-0.06179348
72	0x3dadeaa7	0.08492022
73	0xbd92baeb	-0.07164558
74	0x3e0778b8	0.13229644
75	0xbd96ddb0	-0.07366502
76	0xbd3e290d	-0.046425868
77	0x3d4aff4b	0.049559873
78	0xbde42e61	-0.111416586
79	0xbca8dc09	-0.020612733
80	0x3becdd39	0.0072285202
81	0xbdb5519d	-0.08853457
82	0x3e0aec55	0.13566716
83	0xbcbf4ff3	-0.023353552
84	0xbb94a50a	-0.0045362758
85	0xbd1ecaed	-0.038767744
86	0x3e46fbbd	0.19431968
87	0xbda06676	-0.07832043
88	0xbdc748f8	-0.097307146
89	0xbdabea51	-0.08394302
90	0x3d1741a4	0.036927834
91	0xbc943f12	-0.01809648
92	0xbe338f8b	-0.17535226
93	0xbd12f562	-0.035878547
94	0xbd25427b	-0.040346604
95	0x3d71a386	0.05899384
96	0xbd1fc378	-0.039004773
97	0x3d9c4c41	0.07631732
98	0xbd819fd3	-0.06329312
99	0xbd8c511e	-0.068514094
100	0x3d8b47c9	0.06800801
101	0xbe15820d	-0.14600392
102	0x3e07d813	0.1326602
103	0x3d5ca7a1	0.0538708
104	0x3e33ccc7	0.17558585
105	0xbbc50599	-0.00601263
106	0x3e22d94a	0.15903202
107	0xbe044665	-0.12917478
108	0x3dc144bc	0.09436938
109	0x3e15bf07	0.14623652
110	0xbd5cfc1b	-0.053951364
111	0x3d77f1a8	0.060533196
112	0x3dfa47fd	0.12220762
113	0xbce5d24a	-0.028054375
114	0x3e2fe976	0.17178902
115	0xbd832d0d	-0.06405077
116	0xbde082e3	-0.10962465
117	0xbde9438f	-0.11389839
118	0x3e1bbbf3	0.15208416
119	0x3e3cb0f8	0.18426883
120	0x3e04bed8	0.12963426
121	0xbdb040b0	-0.08606088
122	0x3c8854ff	0.016642092
123	0x3e2f70b2	0.17132834
124	0x3c3f8ced	0.011691314
125	0xbe05c48e	-0.13063261
126	0xbda8ee9d	-0.08248637
127	0x3b81f42e	0.003965876
128	0x3e305106	0.17218408
129	0x3df25f44	0.11834577
130	0xbd82a6da	-0.06379481
131	0xbbe911b8	-0.007112708
132	0x3df8e2d7	0.12152641
133	0xbd8c8b23	-0.06862476
134	0x3c6d234b	0.0144737465
135	0xbd93a6e5	-0.07209567
136	0xbd04bb82	-0.032405384
137	0x3d5fa8b1	0.054604236
138	0xbdf171e9	-0.11789305
139	0xbd2de52b	-0.04245488
140	0xbdd6480f	-0.10462963
141	0xbddad6b0	-0.1068548
142	0xbdd11739	-0.102095075
143	0x3b9aef3b	0.0047282255
144	0x3e1d7563	0.1537681
145	0xbda36b46	-0.07979445
146	0x3d0a61c7	0.033784654
147	0x3c97ef2e	0.018546667
148	0xbe0937c2	-0.13400176
149	0xbe1563f7	-0.14588915
150	0xbda651f3	-0.08121099
151	0xbd645c61	-0.055752162
152	0x3d7caafd	0.061686505
153	0x3e2ed6e8	0.17074168
154	0xbe0296fb	-0.12752907
155	0x3dadd4e8	0.08487874
156	0x3e0e22e8	0.13880503
157	0x3e0c47bb	0.13699238
158	0xbe381d8d	-0.17980023
159	0xbc50b4e9	-0.012738445
160	0x3b98794f	0.004653133
161	0x3da512ae	0.080602035
162	0xbdf81bff	-0.12114715
163	0x3e21a466	0.1578537
164	0x3e3b2789	0.182768
165	0xbd1b5ed1	-0.03793222
166	0xbe143d2f	-0.14476465
167	0x3cca5a58	0.024701282
168	0xbdb04c3f	-0.08608293
169	0xbe30606b	-0.1722428
170	0xbd307b97	-0.043086614
171	0x3d29b3ef	0.041431364
172	0xbc81ecb0	-0.015859932
173	0xbe185c99	-0.14879073
174	0xbe1606a7	-0.14650975
175	0x3d6b4c45	0.057445783
176	0x3e25f56a	0.162069
177	0x3e22daa6	0.1590372
178	0x3dee9333	0.1164917
179	0x3d9e585a	0.077316955
180	0xbe11ec86	-0.14250383
181	0x3dc3bf24	0.095579416
182	0x3dc80e00	0.09768295
183	0xbc6efa07	-0.014585978
184	0x3e1844a5	0.14869936
185	0x3cd1e5c4	0.025622256
186	0xbe0d6d5d	-0.1381125
187	0x3e18e570	0.14931273
188	0x3de35668	0.11100465
189	0x3d857a82	0.06517507
190	0x3d88187e	0.066452965
191	0xbdfa9df9	-0.12237162
192	0x3d5451cc	0.05183582
193	0x3d75e9a8	0.060037285
194	0xbe0ad3f6	-0.13557419
195	0x3ce96fc7	0.028495682
196	0x3de1ba8e	0.110219106
197	0x3d7bba81	0.06145716
198	0x3e02cf8d	0.12774487
199	0x3d130bc1	0.03589988
200	0xbdc5f6d9	-0.09666223
201	0xbc1726bd	-0.0092255445
202	0xbd707f9c	-0.058715448
203	0x3e15c21a	0.14624825
204	0xbcd403a8	-0.02588065
205	0x3e15203b	0.14563076
206	0xbcb4e295	-0.022080699
207	0xbd17b6cf	-0.037039574
208	0x3c1d7b0b	0.009611855
209	0x3e154ddd	0.14580484
210	0x3d849a79	0.06474776
211	0xbd72392d	-0.05913656
212	0x3dc485fe	0.095958695
213	0xbd9125c9	-0.07087285
214	0x3df1b833	0.11802711
215	0x3e3db246	0.18525037
216	0xbb91dd60	-0.004451439
217	0x3df42766	0.11921577
218	0xbe07dce2	-0.13267854
219	0xbe2bc960	-0.16776037
220	0xbd9ab284	-0.075535804
221	0x3da33e06	0.079708144
222	0xbdc0d700	-0.09416008
223	0x3dea52c2	0.11441566
224	0x3dcd0302	0.10010339
225	0x3e02a4b6	0.12758145
226	0x3e05a407	0.13050853
227	0x3e2bfdab	0.16795985
228	0xbddf5ccf	-0.10906374
229	0xbd8d618a	-0.0690337
230	0xbca22801	-0.019794466
231	0xbdcefc69	-0.10106737
232	0x3d085e0a	0.033292808
233	0xbe382d46	-0.1798602
234	0xbe120a4b	-0.14261739
235	0x3e31c33f	0.17359637
236	0x3d960b2c	0.073263496
237	0xbda4dfd6	-0.08050506
238	0x3e4572b1	0.19282033
239	0x3df14703	0.117811225
240	0xbc964375	-0.018342713
241	0x3dedc870	0.11610496
242	0xbe15fdc5	-0.14647587
243	0xbdaf3be2	-0.085563436
244	0xbe1f6e48	-0.15569413
245	0x3d66076c	0.05615942
246	0x3dea418a	0.11438282
247	0x3df7c1dd	0.12097523
248	0xbccc0478	-0.024904475
249	0x3d97e325	0.07416371
250	0x3e1b4b91	0.15165545
251	0x3debecca	0.11519773
252	0x3db61b1b	0.08891889
253	0xbde89469	-0.11356432
254	0xbb09e74f	-0.0021042412
255	0x3e0c196b	0.13681571
