Others/experiments/test/sas/models/best_model.pth (torch, 759175 bytes, 96 tensors)

token_embedding.emb.weight f4 [59, 70]
00000000: 2575 b8bc 7dcd bcbc 1c38 a4bb 642c 0ebc
00000010: 7e0d 8b3c efc1 623c 251a cfbb 5d47 2dbd
00000020: c234 d33b 19fc cebc 6f5d e53b 4bf0 c93b
00000030: 2314 1d3b 22c7 ca3c 07f9 b63c 640e a2bb
00000040: 699e ddbc 41ee 0abd 19ae 393c 2702 823c
00000050: 4b3a 443c 6ac9 febc c5b6 dfbb 5bcc 173d
00000060: 74d2 753c 18db 3fbc 4b46 63bb fb7c 703b
00000070: 3da2 e33c d7f3 013d a10a 9b3c 5e3a 8abc
00000080: 140f 49bc 0fa3 253a bd70 21bc 14cd a23b
00000090: 5c14 103c ef56 133b 8ff9 513c df8e 103c
000000a0: 6c19 06bb 82d5 813c 2dd6 bdbb 2da5 893a
000000b0: b754 2b3c be98 3c3d e0a9 f0bc 46fb 01bd
000000c0: e08e 5cbc 3201 8f3c e6e8 ac3c 731a 693b
000000d0: e1f3 96bb bd5e 00bc dd06 323c 377c 01bc
000000e0: 6937 12bc fbcc 733c 8132 f93c b6b1 8b3d
000000f0: 86de fabc 6033 cabc 6712 153d 94b9 34bc
00000100: fd87 3abc 66ba 963c 01ff b53c 3d55 d33c
00000110: 1c2f f2bc c64e 523d 5b33 28bd 92fd 973b
00000120: 3df4 f2bc bdf0 a43c b3d1 b23c 31a5 2dbd
00000130: 64b0 fb3b 2fdc 4a3d 93cf 82bc c671 473d
00000140: e4a6 e5bc fb0d 6ebc 27dc 673c 1b5f 85bc
00000150: 0343 32bc 7975 fabc fc3f 29bc 3bab e93c
00000160: 94cd a93c 4466 9a3d 6344 3ebc f729 883b
00000170: 44b0 f1bc c0e1 7dbb 5912 54bb 9e68 81bc
00000180: 66a9 ab3c a595 aabb a5a9 a7bc a085 8fbc
00000190: 6dbf 91bd ca59 d0bb a883 ae3c e510 7fbb
000001a0: 274b db3c 1213 d93c 21b4 8a3a 92bd 1d3d
000001b0: 8c4e dabb ab70 18bd 1698 163b 1dcc 513b
000001c0: 10c4 ffbb 9810 91bd 4517 943c d91e 9f3c
000001d0: ce7f 7d3c 0a37 0ebc 5464 12bd b1be 723c
000001e0: 48b4 8cbc 5f2d 473c f447 053d 5915 30bb
000001f0: 2ec0 a8bc 65e8 a3bb 72f6 b03b 5239 313d
00000200: 4941 cebc eb35 13bd d9d4 22bd 40b9 203d
00000210: 4693 3cbc a4fc 3cbc b21a 893d b02c 0dbd
00000220: 83e7 ccbc 7649 38bc 7803 503b b21b 51bd
00000230: 28eb 0fbd ea96 5abd 1235 d73c c20e 173d
00000240: be75 d33c b8d3 113d be30 bdbc 5e76 25bc
00000250: 1817 eabc 6475 1c3d 74a4 083c 09df df3c
00000260: 38ae 0f3d 3ab0 b6bc 855b 80bd e693 35bc
00000270: 6292 39bd 221f c3bc 248a a9b9 26de 2a3d
00000280: 757d 543d 8120 92bc dce5 ebbc 9d02 10bd
00000290: 72d7 553d e1ed 18bd 86df 4b3d 900e 60bc
000002a0: c434 71bc c1c5 7bbc cfb8 fa3c fc52 b83c
000002b0: f4de 19bd e0ae 823b 4747 e03c f852 80bd
000002c0: 7854 12bd 3ef6 21bd af35 7fbd 0908 803c
000002d0: 97cf 1c3d e074 5f3c 2b85 7e3d a06b 483d
000002e0: 5453 ce3b 34ee 40bd a565 7f3d 27c4 1cbb
000002f0: 5349 333d d8ab 35bd 3532 043c ff8d 64bd
00000300: fdc0 31bc 34ea e1ba 12c1 2f3d dff4 213d
00000310: 1857 dbbc ebfe a4bb e5e4 50bc e2e9 df3b
00000320: 7b07 12bd cc96 60bd 2b37 a9bc 8175 3c3d
00000330: c952 94bc dcb2 bb3b aef4 7cbb 5b5e 9d3c
00000340: 2148 db3a 4373 5bbb d4e9 3f3d f7bb 4e3d
00000350: 6041 dfbc db49 36bb bd02 4bbc c275 74bd
00000360: 9513 823b f43d 6b3d e396 36bd ca46 42bb
00000370: e268 bcbc 63fd b63c 2765 49bd 762d 03bd
00000380: 8fac 903c fa55 4b3d dde5 e93b 43b8 1e3d
00000390: cfbd e23c d6ef 54bc 4900 0abd b798 35bc
000003a0: fb04 fbbc 31b2 86bc 0f70 14bd ca46 373d
000003b0: 665f 6c3c 36aa 0e3d f0c5 4b3b 9f32 89bd
000003c0: c74f 69bd 7810 6ebd eab8 41bc cbf2 303c
000003d0: 0365 6e3d 306e e23c 49fc 97bc fedd d23c
000003e0: 5da4 6a3c 4cfe 853c 79e6 4b3d 6df6 0f3c
000003f0: a96b 2dbd 00f6 70bc c4c3 2f3c c4fd 113d
-0.022516796 -0.023047203 -0.0050115716 -0.008677576 0.016974207 0.013840183 -0.0063202553 -0.042304385
0.006445498 -0.025266694 0.0069996635 0.0061626784 0.0023968301 0.024753157 0.022335542 -0.004945563
-0.027053075 -0.033918623 0.011333012 0.015870167 0.011976789 -0.031101901 -0.0068272077 0.037060123
0.015003789 -0.011709951 -0.003467935 0.0036695588 0.027787322 0.031726684 0.018925967 -0.016873535
-0.012271661 0.0006318548 -0.009853539 0.004968295 0.008793917 0.0022482236 0.012815847 0.008823126
-0.002046193 0.015848879 -0.005793354 0.0010501497 0.010457209 0.046044104 -0.029377878 -0.031733774
-0.013461798 0.017456625 0.021107148 0.0035568743 -0.0046067093 -0.007835087 0.010865894 -0.00790315
-0.008924344 0.014880414 0.03041959 0.06821005 -0.030623686 -0.0246827 0.036394503 -0.011030573
-0.011384961 0.018399429 0.022216322 0.02579748 -0.02956348 0.051344655 -0.0410646 0.0046383822
-0.029657478 0.020134324 0.021828508 -0.042393867 0.0076809395 0.04952639 -0.01596812 0.048692487
-0.028033681 -0.0145297 0.0141516095 -0.016280701 -0.010880235 -0.030573593 -0.0103301965 0.028524032
0.02072791 0.07539037 -0.011612984 0.004155393 -0.029502995 -0.0038739294 -0.003235957 -0.015796956
0.020954799 -0.0052058273 -0.020466635 -0.017519772 -0.0711659 -0.00635836 0.021303013 -0.0038919982
0.026769234 0.026498351 0.0010582247 0.038510866 -0.0066621955 -0.037216824 0.0022978834 0.003201253
-0.007805355 -0.07083243 0.018077502 0.019423889 0.015472366 -0.0086801145 -0.03574021 0.014815972
-0.017175809 0.012156813 0.032539323 -0.0026868193 -0.02059945 -0.005002069 0.0054004723 0.043267556
-0.025177615 -0.035940092 -0.03975377 0.03923917 -0.011509722 -0.011534844 0.06694545 -0.034466445
-0.025012737 -0.011247983 0.0031740349 -0.051051803 -0.03513637 -0.05336658 0.026270423 0.03687931
0.02581298 0.0356023 -0.023094531 -0.010099022 -0.028575465 0.03819789 0.00833999 0.027328031
0.035078257 -0.022300828 -0.06267456 -0.011082625 -0.045305617 -0.023818556 -0.00032337115 0.041715764
0.051877458 -0.017837765 -0.028796129 -0.035158742 0.052207418 -0.037336234 0.049773715 -0.013675347
-0.014722053 -0.015366972 0.030605702 0.022500508 -0.03756614 0.003988132 0.027377738 -0.06265825
-0.035725087 -0.039541475 -0.062307056 0.015628831 0.03828391 0.013638705 0.062138718 0.048930764
0.0062965546 -0.04710217 0.062352795 -0.0023920627 0.0437711 -0.044353336 0.008068611 -0.05579948
-0.010849235 -0.0017235936 0.042908736 0.039540168 -0.026774928 -0.0050352714 -0.012749885 0.006833301
-0.035651665 -0.05483131 -0.020656189 0.046010498 -0.018105881 0.005728109 -0.003859799 0.019210031
0.001672987 -0.003348545 0.046853855 0.050472226 -0.027252853 -0.0027815017 -0.01239079 -0.059682615
0.0039696195 0.05743213 -0.04457749 -0.0029644244 -0.02299923 0.022337621 -0.049168732 -0.032025777
0.017660407 0.04964254 0.0071379975 0.038749944 0.027678398 -0.0129966345 -0.03369168 -0.011083773
-0.030642023 -0.01644239 -0.03623968 0.044745244 0.014427042 0.034830295 0.0031093322 -0.06699108
-0.056960847 -0.058121175 -0.011823872 0.010800074 0.0582018 0.027640432 -0.018552916 0.02574062
0.014321414 0.01635661 0.049780343 0.00878678 -0.042339 -0.0147070885 0.0107278265 0.0356424

positional_embedding.emb.weight f4 [70, 70]
00000000: a177 78ba 4022 c8b9 db79 62bc 8901 993c
00000010: 55e4 b73b b345 09bd 69f6 1b3b b835 31bc
00000020: f04e 81bb 3006 36bc 5d7b b53c 28c0 15bb
00000030: 0ba2 f3bb 7d07 1cbc 3988 5a3c 6092 0b3b
00000040: 2ca7 7ebb e90b 243b 3cba 8a3c 7a5f 833b
00000050: 0759 e7ba a955 5dbb e0f8 b8bb c3d8 1e3c
00000060: 2969 3dbb b079 7939 05a6 a5bc 80e4 0abc
00000070: f1c0 9bbb 51df 6ebc a924 61bc 3de0 b4bb
00000080: 0150 0cbc 6ff8 9e3c e44d b53c 3abb 783c
00000090: f7c5 c23b e2b4 fb3b ee75 5abc 80e5 49bc
000000a0: 3dfa bcbb 6827 293b 7305 aebc f958 243b
000000b0: 3947 083c 035e 70bc e6b7 173c d05b 95bc
000000c0: b4d2 0a3c d1e4 08bc 31bd 6cbb f5f3 1ebb
000000d0: 9d7d aabb ec57 3bbb 5aed 06bd 46c1 2fbb
000000e0: 0556 743c 2d4c 793b 0fc0 18bc c497 9f3a
000000f0: 3087 bbbc 6acc 403c 7b26 2bbb ec14 f0bc
00000100: 8782 973b a298 23bc 1264 10bb 43bd 71bb
00000110: 69b3 233c 7ed2 25bb 4624 0b3c e166 093b
00000120: 33c6 f2bb 2f54 d3ba 55c7 f53b 03bd b7bc
00000130: d936 273b a465 2a3c 9dde d8bb 7e2c 30bc
00000140: c4de d63c bdb3 d4ba 710c 113c 2326 90bc
00000150: 3a6d 343b d377 6d3c b7c8 c7ba 8377 6bbc
00000160: b26f f73b 17e6 c53c bd6b 243b 7e54 24bc
00000170: 6c93 383b 6b8f 5b3c 3f32 b93c 2976 94bc
00000180: 4aa9 14bc 2824 81bb 5581 4d3c 71b7 323c
00000190: 9771 11bc f086 62bb 0327 443c 10d2 86bc
000001a0: 167b 22bb 2967 343d 3e38 193c bdc9 9f3c
000001b0: 82ce 56bb f21f b63a 4c75 603c cbf9 403b
000001c0: cf3c c43b f690 19bd 1c84 fc3b 72b3 0ebb
000001d0: 8cd7 91bc 329a 79bb d697 ea3a f1d6 253c
000001e0: 64bb c4b9 0f99 e7ba 367a 53ba 1530 263c
000001f0: d2a4 113c 68ce 80bc fd10 3c3c 064b 6cbb
00000200: b8a3 9239 574d 193c cf46 8bbb 5521 5d3b
00000210: 5be6 303c bf23 d3bc a6f5 b4b9 4c82 98bc
00000220: 081c fb3b da18 87bc b20e d03b 1dee 583b
00000230: 4c00 60bc 9fac 09bc b41a 27bb b809 af3b
00000240: 8712 04bc 3535 93bc 5f0f bcbc e682 463c
00000250: 0ecf 6abc ee22 5ebc 2a8d 08bc eda5 aa3b
00000260: 79e3 c1bc 181b 99bc 2158 663b 1867 963c
00000270: 438c 303c 8b30 7b39 ff3f 4fbb bbfe 953c
00000280: 242d 04bc b31c 71bb 97fb 89bc bb94 3f3a
00000290: fe23 92ba f739 333c f42d b3bc 5992 85bb
000002a0: 7f8e 58bc 371f a2bc 99e9 54bc 1f8d 223c
000002b0: f0a9 83b9 9a5d 723b 0214 4b3c d8a0 8dbb
000002c0: 21be 7bba 234d 7e3c 5e51 5dba e021 c9bc
000002d0: 26fa b33c ef57 58bb b916 e6bb 15e2 1ebc
000002e0: e8bb b4bb 7641 01bc 22f5 ef3b bec2 1abb
000002f0: c9e3 dfbc 32f6 68bc 3b0a 623b ea0f 0dbc
00000300: 2348 10b9 54b3 7d3c 279f 9abc 23e1 babb
00000310: d9a7 353c d643 6cbc 8198 dabb 3618 c53b
00000320: 27b5 29bc de7c 5c3b 817d d13b 87c3 51bb
00000330: 558d b0bc 7382 47bc bb82 063b 0ce3 c7bc
00000340: 5e86 063d f98a c7bb 4a02 c23c d47f fb39
00000350: 89c4 9bbb f8af a7bb 9378 57bc 5b8d 36bc
00000360: 2f57 14bc a65a 07bc 4dc4 9839 f133 a6b9
00000370: 2d7f 4f3c 4dae ea3b ed93 3b39 54c2 903a
00000380: af14 1c3c 3a89 87bc 4177 403c d2c9 e9bb
00000390: 8a25 15bc 502c 58bb 7a8a 01bc 04ae 843c
000003a0: b751 4439 ce24 7b3c 4207 b1bc e62f c53b
000003b0: a402 93bc d956 a3bb 0bcd 36bb 8436 5a3b
000003c0: d6de b33a 2177 cc3b f7b5 82bb 6840 b23a
000003d0: 2578 8c3c f2ca 3d3c 6496 2e3c 9593 f83b
000003e0: 4133 8bbb 9c19 9c3b fb65 203c 93d2 57bb
000003f0: 9bf7 8e3b dd58 4f3a 731f 2b3c 23d1 193c
-0.00094782753 -0.0003817249 -0.013822998 0.01867749 0.005611936 -0.033513736 0.0023797995 -0.01081603
-0.0039461777 -0.011109874 0.02215355 -0.002285013 -0.0074350885 -0.00952327 0.013338142 0.0021296963
-0.0038856966 0.0025031513 0.016934507 0.0040091844 -0.0017650434 -0.0033772981 -0.0056449026 0.009695235
-0.0028901792 0.00023791823 -0.020220766 -0.00847733 -0.004753225 -0.01457961 -0.013741651 -0.0055198953
-0.008563996 0.019405572 0.022131868 0.015181357 0.0059440094 0.007681475 -0.013333781 -0.0123227835
-0.0057671354 0.0025810841 -0.021242833 0.0025077446 0.008317762 -0.014670852 0.009260153 -0.018232256
0.008473087 -0.008355335 -0.003612351 -0.0024254296 -0.0052029626 -0.002858634 -0.0329412 -0.002681808
0.014913087 0.003803979 -0.009323134 0.0012175967 -0.02289161 0.011767486 -0.0026115465 -0.029306851
0.0046237144 -0.009985121 -0.0022032303 -0.003688649 0.009991505 -0.0025302465 0.008492535 0.0020965862
-0.007408881 -0.0016123111 0.007500569 -0.022428995 0.002551487 0.01040021 -0.0066183344 -0.010752795
0.02622927 -0.0016227883 0.008853064 -0.01759631 0.0027530924 0.0144939 -0.0015242313 -0.0143717555
0.007551157 0.024157567 0.002508863 -0.01002991 0.0028164042 0.013400893 0.022606967 -0.01812275
-0.009073565 -0.0039410777 0.012543042 0.010907994 -0.00887718 -0.0034565292 0.011972192 -0.016457587
-0.0024792603 0.044043694 0.009351788 0.019505376 -0.0032776897 0.0013895018 0.013699841 0.0029445763
0.0059886943 -0.03749176 0.0077061784 -0.0021774438 -0.017802976 -0.0038086292 0.0017898034 0.010122047
-0.0003752365 -0.0017669516 -0.0008067222 0.0101433 0.008889394 -0.015723422 0.01147866 -0.003605546
0.0002796927 0.009356818 -0.0042503844 0.0033741791 0.0107971085 -0.025773881 -0.00034515298 -0.018616818
0.0076632537 -0.016491342 0.006349408 0.003310091 -0.013671946 -0.0084029725 -0.0025498094 0.0053417347
-0.008061058 -0.017969707 -0.022956548 0.01211617 -0.014331592 -0.013558133 -0.008334437 0.005207768
-0.023668038 -0.018689677 0.0035147744 0.018359706 0.0107756285 0.00023955309 -0.0031623838 0.018309942
-0.008067403 -0.0036790788 -0.0168436 0.00073082343 -0.0011149643 0.010939113 -0.021872498 -0.004076284
-0.0132175675 -0.019790275 -0.012995147 0.009921341 -0.0002511288 0.003698206 0.012394907 -0.0043221526
-0.00096032216 0.0155213205 -0.00084426056 -0.024552286 0.021969866 -0.0033011397 -0.0070217517 -0.009697457
-0.0055155642 -0.007889142 0.0073229233 -0.002361461 -0.027330296 -0.014218854 0.003449096 -0.008609751
-0.00013759783 0.01548465 -0.018874718 -0.005703108 0.011087381 -0.01442047 -0.006671012 0.006014849
-0.0103581315 0.0033643763 0.006393135 -0.0032007413 -0.021551767 -0.012177098 0.0020524699 -0.024400257
0.032842986 -0.006089565 0.023682732 0.0004796969 -0.0047536534 -0.0051174127 -0.013151306 -0.0111421
-0.009053989 -0.008261358 0.00029137955 -0.00031700687 0.012664598 0.0071618916 0.00017888816 0.0011044242
0.009526416 -0.016544927 0.011747182 -0.0071346546 -0.009103188 -0.0032985397 -0.007906551 0.016196258
0.00018722458 0.015328599 -0.021609906 0.006017673 -0.017945595 -0.0049847183 -0.0027893211 0.0033296654
0.0013723026 0.006239787 -0.003988977 0.0013599517 0.017147133 0.01158403 0.010655973 0.0075859525
-0.0042480533 0.004763795 0.009789939 -0.0032931908 0.004363013 0.0007909665 0.01044451 0.009388241

body.transformer_blocks.0.attention.linear_layers.0.weight f4 [70, 70]
00000000: ee10 d939 0659 8dbc 50a9 163d 5b82 6d3c
00000010: 704c ce3c ef4d adbc c2a3 2fbb ed21 193c
00000020: dbb7 59bc 906e d9bc e849 babc a2c9 d73c
00000030: 2113 00bc f592 813b fe72 1d3c 51fb ea3c
00000040: a3d2 833c 3063 943c 7aa1 613c badc a63c
00000050: 3e50 233a 3f08 533a 747f b2bb 871b 703c
00000060: 0ac4 13bc d9a1 e83c 2e0e bd3c d938 90bc
00000070: d06a 543b 0fc1 dabc a222 34bd db8f c33b
00000080: 24e5 f53c 6829 9f3c 53a5 a73c c63e e4bc
00000090: 69f2 03bd ad59 9c3c aa0c 943c a0be 5e3b
000000a0: 3291 6cbb 7a66 913c 007f 04bc 6209 613a
000000b0: e55d 72bc 4789 273c cf8c 9c3b b55c 9b3c
000000c0: fcb0 993c 566a 613c 330d 9f3c 7fa7 c03b
000000d0: a8d0 853c a32f eabb 7b67 a7bb 0871 7bbb
000000e0: e6ef 343c 4979 77bc 7f3f 0e3d 9dca ee3c
000000f0: a365 0a3d 7355 013c 2823 ddbc 42fd 70bc
00000100: 57f1 8a3b da0a 2e3c cfb6 d6bb e2ae 7fbb
00000110: 2405 a73c e4c3 02bd 1911 a03c f683 50bb
00000120: cf93 4abc 6abb 83bc 3119 0e3c 99e5 98bb
00000130: 9b6a 623b 4fe3 18bb dc33 f1bc 3577 143d
00000140: 0001 9cbc 7866 f9bb 987e 17bd 9b64 2e3c
00000150: 5df6 bc3b 1941 2f3c dd2e 3dbc 3982 3ebd
00000160: 0826 f73c f3c2 173d 7c10 c3bc a1f8 193c
00000170: 597c 6b3b 2aae 8bbc 97fc 87bc c9a8 e0bc
00000180: 5c69 5cbb b94c 0a3d a02e 623c 436d 7fbc
00000190: a183 0abd 4ff0 d4bc 2eec b93b a55b daba
000001a0: 3ba3 a93c 4127 7d3c 268e 503c acc6 d43c
000001b0: b6d8 433c 9f2d 27bc 4a12 513c 63db bd3b
000001c0: 5dc6 3bbc af9a ee3c 9f3a 4abc a816 52bd
000001d0: 4f41 e73c 66f2 f13c 5015 5d3c 54f3 91ba
000001e0: d149 83bc 14b6 02bc 3098 ff3c 06e3 5e3b
000001f0: 91df f33b cfa1 ccbc 013f 933c 6716 6c3c
00000200: 76d3 c8bc 0e02 e53b 8038 603c cec8 76bc
00000210: 556a 67bd beb1 98bc 5e8d 89bc c1b3 d0ba
00000220: ab34 13bc 3cab 81bc fd8f c23c 73c7 4d3b
00000230: b3a1 0d3c 19ec 1f3b 197c 7ebc 7f13 6abb
00000240: e0a0 ddbb 5189 06bd 4bce 41bb d90c acbb
00000250: 2f86 a1bb 70a0 e7bc 52dc d9bc 2a86 ca3c
00000260: ab59 8fbc 92a4 35ba 9599 f13b 9cd6 3eba
00000270: 69e3 f33b cbd6 a7bb 5e9c ca3c 4af3 553d
00000280: 5d80 b93c e675 ed3c d898 4c3c 28f3 bb3c
00000290: f3d9 523a daaa 40bc 488a fa3b cc43 13bd
000002a0: ef12 31bc 1bfd 0f3c 70cf 333c 12ad 093c
000002b0: 42e6 0f3b 0ba5 f6bb 42e9 a53b 7167 783d
000002c0: 7930 3dbd 8f34 953c 5c75 cc3a 2214 a13c
000002d0: e2de f93b d1a0 e33c fe6e aa3c 9eff 303c
000002e0: 4f9e 90bc 4b85 7fbc c621 0ebc c7c7 443c
000002f0: 4b79 8bbd 5438 36bd 5ac8 1b3c 26f9 7a3c
00000300: e1fc 8dbc a01d e33b 54b6 39bb 758c 18bd
00000310: 8e9c c8bc b344 8ebc 0999 58bc ea94 4bbc
00000320: 173f 07bd bb2a fdbc 290c ca3b 9fb2 ebba
00000330: 6a8e 043d 6296 873c 8850 08bd e5b4 c83c
00000340: 7ad5 debb a0fd 233d d936 b73b b6b6 2cbd
00000350: 3cd1 d03c 9f4d 9bbc 732e 353d f738 2c3b
00000360: 0f34 d3bc b2fc edbc f793 e53c 7c13 013d
00000370: 37d5 9bbb 9335 183c 51fe 9c3c 2de2 8f3c
00000380: 4bae 28bb a891 b5bc 0d6a 16bd 1b47 a2bc
00000390: 427a 83bc e473 a5bc ec7b 03bc ebd5 a4bc
000003a0: 4e7f a33b 3b77 57bc 1265 e73b d4cb f63b
000003b0: dcdd 353c 7f8e a2bc ef51 a63c 9d6f ac3b
000003c0: 56b7 87bc ab3f 213d e022 ecbc d372 063d
000003d0: 13ca 0b3c d895 873c 0b1f 09bc 65a0 96ba
000003e0: f118 49ba 4d34 62bb 2342 603c dc02 ffbb
000003f0: 9a17 a33c 77e8 53bb f6d5 e7bc d5df 203c
0.0004140208 -0.017254364 0.036782563 0.014496411 0.025182933 -0.021155326 -0.0026800488 0.009346467
-0.0132884635 -0.026541978 -0.02274032 0.026341263 -0.007817061 0.003954286 0.009609936 0.02868429
0.01609165 0.018113703 0.013771409 0.020368923 0.00062299136 0.000805024 -0.0054473225 0.0146550005
-0.009018907 0.028397487 0.02307805 -0.017605232 0.0032412298 -0.026703386 -0.04397834 0.0059680766
0.03001649 0.019428924 0.020464575 -0.027861964 -0.032213602 0.01908573 0.018072445 0.0033988133
-0.0036097285 0.01774906 -0.00808692 0.0008584467 -0.014792894 0.010225601 0.004777528 0.018965105
0.01876115 0.013758263 0.019415474 0.005879342 0.016334847 -0.007146792 -0.0051087714 -0.0038366932
0.011043524 -0.0151046 0.034728523 0.029149348 0.033788335 0.007893908 -0.026994303 -0.014708819
0.0042401957 0.010622704 -0.006552554 -0.003901415 0.020388193 -0.031925097 0.019539403 -0.0031816936
-0.012364342 -0.016080577 0.008672998 -0.004666042 0.0034548405 -0.0023328846 -0.029443674 0.036246497
-0.019043446 -0.007611092 -0.036985964 0.010644103 0.0057666735 0.010696673 -0.011546818 -0.04651091
0.030169502 0.037051152 -0.023811571 0.009397657 0.0035932271 -0.017050821 -0.016599936 -0.027424233
-0.0033632135 0.033764575 0.013805062 -0.015590015 -0.033816937 -0.025993494 0.0056739068 -0.0016659392
0.020707717 0.015451253 0.012729203 0.02597364 0.011953523 -0.010203748 0.012760708 0.005793975
-0.011460868 0.029126493 -0.012343078 -0.051291138 0.028229384 0.02953453 0.013493851 -0.001113514
-0.01602641 -0.007977981 0.031200498 0.0034009828 0.0074424227 -0.0249795 0.017974379 0.014409638
-0.024514895 0.0069887703 0.013685346 -0.015062524 -0.05649789 -0.018639442 -0.016791042 -0.0015922711
-0.008984725 -0.015828721 0.0237503 0.0031399399 0.008644509 0.00244022 -0.015532517 -0.0035717187
-0.0067635626 -0.0328458 -0.0029572423 -0.005250555 -0.004929326 -0.028274745 -0.026594315 0.024722178
-0.017498812 -0.0006929125 0.0073730447 -0.0007279904 0.007442881 -0.005122041 0.024732765 0.05223397
0.022644216 0.028986882 0.012487613 0.022943094 0.0008043341 -0.011759484 0.007645879 -0.035953328
-0.010807737 0.008788372 0.01097475 0.00840308 0.0021957313 -0.007526999 0.005063207 0.060645524
-0.046188805 0.018213538 0.0015598941 0.01966292 0.0076254467 0.027786644 0.020804878 0.010803131
-0.017653612 -0.015595744 -0.008675044 0.012010521 -0.06810244 -0.044487312 0.009508217 0.015318191
-0.017332496 0.006931022 -0.0028337436 -0.037243325 -0.024488714 -0.017366743 -0.01322008 -0.012425641
-0.03301915 -0.030904165 0.0061660004 -0.001798231 0.03236238 0.0165512 -0.033279926 0.02450032
-0.0068003507 0.040036798 0.005591255 -0.042166434 0.025490396 -0.018957911 0.04423375 0.002627907
-0.02578166 -0.029051159 0.028024657 0.031512722 -0.004755642 0.009290117 0.019164236 0.017563904
-0.0025738652 -0.02216418 -0.03672223 -0.019809296 -0.016049508 -0.020196863 -0.008025151 -0.020121535
0.004989541 -0.013150985 0.007061609 0.0075316224 0.011100259 -0.019843338 0.02030274 0.005262329
-0.016566914 0.03936736 -0.028825223 0.03282435 0.008532065 0.016550943 -0.008369218 -0.0011491893
-0.0007671258 -0.0034516037 0.013687643 -0.0077823233 0.019908715 -0.0032334605 -0.028300267 0.009818991

body.transformer_blocks.0.attention.linear_layers.0.bias f4 [70]
00000000: 2b08 7c3c 61d6 04b9 75eb b43a 5cf9 debb
00000010: 389e 4b3c 17ea 433c a888 513c a3bd 0abc
00000020: 1a9b 8d3c 8bf2 69bc ba20 ee3b 4e46 5b3c
00000030: e6ef 883c f2de 3ebc cf75 223b c131 213c
00000040: 634c 123c 1d15 05bc c068 8eba 691d d73b
00000050: 7c6d 82bc 38ba c93b ec65 863c 350c ec3a
00000060: 4362 2e3c 2c2b e03b 139a 2c3c a61f 3cbc
00000070: 3cdc 16bc 2b5c cdbb 2d83 823c 31c2 073c
00000080: 0c44 423b 93bd 9f3c 80e0 68bc b4d1 cc3b
00000090: 7a9c 863c ddc5 f4bb 605d 81bc 8518 7e3b
000000a0: 6287 37bc 620b 6bbc 741f 1bbc 75b7 6a3c
000000b0: 5871 14bc 2b80 10bc b7df 1ebc 8460 28bc
000000c0: 7600 2e3c 144e 62b9 514b c6bb 05e3 dabb
000000d0: 443f 1b3c 665d 2b3c 6511 273c f982 a53b
000000e0: 87d2 2fbc d998 573c 1cad 453c d8b6 ccbb
000000f0: cc5e 3ebc f1a2 72bb c5e1 c3bb 6577 1e3c
00000100: 9804 00bc 2853 313c 6f88 d33b 1873 603c
00000110: d6d2 7f3b b860 83b9
0.015382807 -0.00012668363 0.0013803082 -0.0068046283 0.012427859 0.011957667 0.012788929 -0.0084680645
0.017285872 -0.014279018 0.007267085 0.013383461 0.016715955 -0.011649834 0.0024789458 0.009838522
0.008929345 -0.00812271 -0.0010864958 0.0065647853 -0.015921347 0.006156232 0.016406022 0.0018009009
0.010643545 0.006841084 0.010534781 -0.011482155 -0.009207781 -0.006267091 0.01593169 0.008286045
0.002964261 0.019499576 -0.014213681 0.0062505845 0.016432036 -0.007469876 -0.015791595 0.003877194
-0.011201711 -0.014345976 -0.009467948 0.014325966 -0.009060226 -0.00881962 -0.009696892 -0.010276917
0.010620227 -0.00021582126 -0.006051459 -0.006679895 0.009475533 0.01045928 0.010197018 0.0050510135
-0.010731346 0.013159 0.012065198 -0.0062473826 -0.011619281 -0.003702339 -0.0059778416 0.009672021
-0.007813595 0.010823049 0.006455473 0.0136993155 0.003903558 -0.00025058328

body.transformer_blocks.0.attention.linear_layers.1.weight f4 [70, 70]
00000000: a5ca 113c dfd5 9d3b 4314 bebc bb97 a83c
00000010: 532a a33c 488b 833c 185f 22bb 3f31 68bc
00000020: 4240 3f3c 7ca6 c83c 6c6d 9e3c 55fe 41bc
00000030: ebed 9a3b 55c3 353c 48f2 01bd 9f8d c3bc
00000040: 35f9 d0bc 0b1a d8ba f12d 623b 9537 b5bc
00000050: fed1 423d c391 dd3c 4e8e 93bd 50f5 333d
00000060: 6fb3 1e3c bc1d f63b 026b ad3c 1a66 013d
00000070: 55a7 d23c 7baa 3a3b acff 9fbb e14f 033c
00000080: 49ae 2d3c 2aa4 48bc f3da 06bc 96bc 9cbc
00000090: 027f f93b f82a 49bb 1e03 d6bb dc8c c5bc
000000a0: 930a 863c 1473 6fbc 24bd 96ba f971 3a3c
000000b0: c64a 2abc b7da b4bc f7f2 f139 cf61 44b9
000000c0: b12c a73c 6622 19bc b43d bf3c 1af7 65bc
000000d0: 45f2 bdbc fe56 673b 87db 90bb 2756 92bc
000000e0: c6d7 d83c b122 3cbb 87be 883c 1718 cebc
000000f0: e3e0 cebb e5e5 5b3c c2a1 0e3c f166 9f3c
00000100: db5e 29bc 3208 a33b 9762 2a3c 3e0e eb3c
00000110: 9d36 bfbc d615 263d c793 56bc 6cf9 283c
00000120: d285 853c 3f08 71bc 66cd 953c e405 c7bc
00000130: 7d7b 593c 53e9 f5bc 674e 873c 0d15 163c
00000140: ee3d 7dbc 7b84 8c3c d189 653c d5ee 1d3d
00000150: 38b3 37bd d407 4d3c 155f f5bc 8fee d6bc
00000160: 2ee6 e73b 97d1 043b 15e3 d03b 216a 073d
00000170: 7dc4 213c a89d 56bc 3690 f8bc 266d 7c3c
00000180: 688d 293b 1c1d d23c 2bed 69bb c2ff 3d3c
00000190: a77d c33c 0d0a 4bbc 1951 b83c 9956 adbc
000001a0: 59e2 043d 7b98 cfbc 578c 11bc aae2 eabc
000001b0: 5289 66bc 71d3 e1bc 52d3 8f3c d597 24bb
000001c0: 27f3 473c 333a ad3c 2dcd 8abc 9618 943c
000001d0: 4121 0dbb 56be 7dbd ec58 c1bc adf4 133d
000001e0: 0d10 06bd 8354 303c 2ae1 11bd ace4 93bb
000001f0: bf70 b93b 2871 14bd 9993 d1bc 0fc4 b63c
00000200: 94e5 d7bc bcc7 893c 0b47 1bbc 39a5 1dbc
00000210: 16b8 b5bb 543e 0bbc c5e6 aebc a593 c73c
00000220: 8e2f adbb 949e a93c 471e 993c 9fa6 273c
00000230: b236 0b3d 90d7 f43b 3028 26bc 35a8 5ebb
00000240: 39c0 5b3b 1e6a 303b 41f0 f43c 1bfd 503d
00000250: 0962 f73a 71fb ae3c 1b5e 9c3c a67e b2bc
00000260: 044a 86bc 0f41 043c dc7f 1a3c 7733 84bc
00000270: 0a34 44bb e073 2f3d 872b 153d 00e8 8dbc
00000280: 0a85 103d b571 1ebd 4f52 d83c 8d7c 3fbc
00000290: 61e0 07bd 7bc5 d2bc b884 ec3b d173 7a3c
000002a0: 6c0b 06bb c654 04bd bb87 dc3b f1bd ea3c
000002b0: b512 83bb faf9 a3bc 225b f43b d432 deba
000002c0: b84b 3abb 7ac0 0f3d 95b6 963c 4681 90bb
000002d0: c2a0 f4bc 10ab 56bc ed3d 643b 4ec6 c2bc
000002e0: 839a b93b 27e0 c4ba 14c8 25bb fa1e c33b
000002f0: 3808 f23b 6361 863c 3051 713c c67b a9bb
00000300: 9f2a 09bc 8b47 febc 4111 b2bc 59a6 19bc
00000310: 5f0b 0b3c 6b06 aa3c e506 be39 e962 523c
00000320: 64be aebc c71f d33c 23dc c73c 32bb 2dbd
00000330: c8dc b0bb f15a 143d 0bc8 8bbc 3ae3 a4bc
00000340: 79bf f93b 3e13 d53c 07d4 97bc 7977 51bd
00000350: bc8c 21bc 856f 1ebc db2d 293c 9def 0a3c
00000360: c78a 143d e00b d8bb 22f0 e33c f170 2ebc
00000370: 7db9 25bd d23f d1bc 2bf6 2e3c 58ec ae3c
00000380: e96e e33c 57aa 853b 0404 593c 8a89 48ba
00000390: 32e3 edba ca47 0d3c d1af c33c a577 0abc
000003a0: cff4 8dbb 71d0 b8bb 4b07 02bd 6645 dbbc
000003b0: d78b 8ebc f4ba 3c3c afa6 45bb 8756 7d3b
000003c0: 450a 72bc 68e0 153d a52c 333c b725 dcbb
000003d0: 4916 d8bc adc6 14bc c6cb 783b 8b00 1b3d
000003e0: 602c 053d b224 dabc 0f2e cf3c 540d d1bb
000003f0: d2e0 df3a 8159 9c3a 4d0b 98bb 9e1c 7f3c
0.008898412 0.004816755 -0.02320302 0.020580163 0.019917643 0.016057625 -0.0024775919 -0.014171897
0.011673035 0.024493448 0.019339286 -0.011840423 0.004728069 0.011093934 -0.031725198 -0.023871241
-0.025509456 -0.0016487254 0.0034512246 -0.02212123 0.047563545 0.027047044 -0.07204877 0.04393512
0.009686335 0.007510869 0.02116919 0.031591512 0.025714556 0.0028482962 -0.0048827734 0.00801465
0.010600635 -0.012246171 -0.0082309125 -0.019132894 0.0076140175 -0.0030695777 -0.0065311333 -0.024115019
0.016362464 -0.014614839 -0.001150046 0.011379712 -0.010393804 -0.022076948 0.00046148125 -0.00018728453
0.020407053 -0.00934658 0.023344852 -0.014035964 -0.023186812 0.0035299654 -0.004420701 -0.017863346
0.026470076 -0.00287072 0.016692413 -0.025157971 -0.0063134297 0.01342151 0.008705558 0.019458266
-0.010337557 0.004975342 0.010399482 0.028693315 -0.023341471 0.040548168 -0.013096756 0.010313373
0.016299162 -0.014711439 0.018286418 -0.024294801 0.013274071 -0.030018484 0.016516877 0.009160292
-0.01545666 0.017153015 0.014009909 0.038557846 -0.04484865 0.012514073 -0.029952565 -0.0262368
0.007077 0.0020266527 0.0063747265 0.033060197 0.009873507 -0.013099112 -0.030342203 0.015406882
0.0025871638 0.025648646 -0.0035694342 0.011596622 0.023863627 -0.012392533 0.022499608 -0.021159457
0.032442424 -0.025341263 -0.008883557 -0.028672535 -0.014070826 -0.027566643 0.01755682 -0.0025114913
0.012203968 0.021145916 -0.016943539 0.01807813 -0.0021534713 -0.061949097 -0.023601972 0.036122013
-0.03273015 0.010762337 -0.035615124 -0.004513344 0.0056591923 -0.036240727 -0.025583075 0.022310285
-0.026354589 0.016818874 -0.009477387 -0.009621912 -0.0055456264 -0.008498747 -0.021350274 0.024362395
-0.00528521 0.020705499 0.018691195 0.010232597 0.03398771 0.007471986 -0.010141417 -0.003397477
0.0033531322 0.002691872 0.029899718 0.05102263 0.0018873821 0.021360131 0.019087842 -0.021788906
-0.016392715 0.008072152 0.009429898 -0.016137822 -0.0029938244 0.042835116 0.036418464 -0.01732254
0.035283126 -0.03868266 0.026406435 -0.01168741 -0.03317297 -0.025728932 0.0072179697 0.015286402
-0.0020453585 -0.03230741 0.0067300475 0.028655024 -0.004000033 -0.020016659 0.007457153 -0.0016952404
-0.002842648 0.03509567 0.018397609 -0.004409942 -0.029861812 -0.013102308 0.003482695 -0.0237762
0.005664171 -0.0015020416 -0.0025296258 0.0059546204 0.0073862337 0.01640386 0.014728829 -0.0051722256
-0.008371978 -0.031039974 -0.021736743 -0.009378039 0.008486598 0.020755013 0.0003624476 0.012840965
-0.02133102 0.025771989 0.024396962 -0.04241485 -0.005397413 0.03621954 -0.017063161 -0.020127881
0.0076217023 0.026010152 -0.01853372 -0.05113933 -0.009860214 -0.009670143 0.010325874 0.00847998
0.03626516 -0.0065932125 0.027824465 -0.0106470445 -0.0404601 -0.025543127 0.010678808 0.021352932
0.027762847 0.004079144 0.013245586 -0.00076498894 -0.0018149375 0.008623073 0.023887547 -0.008451377
-0.004332162 -0.0056400825 -0.031745236 -0.02676649 -0.017400665 0.0115191825 -0.0030159166 0.003865631
-0.014772956 0.036590964 0.010935937 -0.006718363 -0.026377814 -0.009080571 0.0037963255 0.037842315
0.032513022 -0.026628826 0.025290517 -0.0063797627 0.0017080551 0.001192853 -0.004640019 0.015570788

body.transformer_blocks.0.attention.linear_layers.1.bias f4 [70]
00000000: 9eb9 4632 1040 0cb2 2264 1631 5d3a 97af
00000010: 7fce 86b1 254b c131 ff85 8aae a6a9 c32f
00000020: fc2d d1af d9d8 c2b1 6629 27b1 ebca 4eb1
00000030: 0fa7 55b2 dc15 d330 8359 9c32 d8f9 6c30
00000040: dbf9 da31 4cb6 9d31 30be 35b2 8a37 5c31
00000050: ddec b332 28ff 5eb1 e570 e7b2 fd57 2ab2
00000060: 1d6e e7b2 f2c0 a131 2c30 ff31 0ac1 edb1
00000070: 738d 2ab2 58c8 88b1 c1a6 20b2 dfb4 abaf
00000080: efdb 8932 aa03 4bb2 c9b4 dc32 bb36 42b2
00000090: 7129 08b2 c2ce 43b2 3534 cab0 ec8b edb1
000000a0: e560 11b2 538e dfb2 2446 bcb2 2537 7132
000000b0: cddd 8632 8f1c ca32 8919 9930 4c9a ac32
000000c0: 3a4d 12b2 9ac0 b2b2 e67b 6531 5d2c 75b2
000000d0: ac7a 0332 3779 6431 1529 7d32 c781 bb2f
000000e0: 0d32 10b2 c5bd d22f b6c3 a632 4ac8 6532
000000f0: eb6d 08b1 08cd 2dae 0fb8 90b2 eed9 afb2
00000100: 940f c031 0467 5132 13b2 dc31 79e5 b130
00000110: 743a c6b1 6ba0 1b31
1.1567321e-08 -8.163639e-09 2.1884792e-09 -2.750821e-10 -3.923389e-09 5.6255822e-09 -6.299316e-11 3.5590836e-10
-3.8049552e-10 -5.670796e-09 -2.432523e-09 -3.009229e-09 -1.24362165e-08 1.5358483e-09 1.8201495e-08 8.621135e-10
6.3730403e-09 4.590026e-09 -1.057883e-08 3.2045784e-09 2.0946056e-08 -3.2450291e-09 -2.6943278e-08 -9.915309e-09
-2.6942013e-08 4.707652e-09 7.4269533e-09 -6.919554e-09 -9.927464e-09 -3.9808974e-09 -9.351141e-09 -3.1233235e-10
1.6048913e-08 -1.1816988e-08 2.5693582e-08 -1.13047305e-08 -7.925665e-09 -1.1397505e-08 -1.4712273e-09 -6.913515e-09
-8.462142e-09 -2.6025338e-08 -2.1917977e-08 1.4040585e-08 1.5700516e-08 2.3528882e-08 1.1139473e-09 2.0093601e-08
-8.515878e-09 -2.0809512e-08 3.3394314e-09 -1.4270964e-08 7.653096e-09 3.324727e-09 1.4735879e-08 3.4107314e-10
-8.393283e-09 3.8333617e-10 1.9413942e-08 1.3375095e-08 -1.9853086e-09 -3.951775e-11 -1.6847507e-08 -2.0471784e-08
5.5897065e-09 1.2188824e-08 6.4230874e-09 1.2943665e-09 -5.769204e-09 2.2646656e-09

body.transformer_blocks.0.attention.linear_layers.2.weight f4 [70, 70]
00000000: da44 d43c e4af fbbc 443e 00bc acf2 143c
00000010: c95f 6cbd 32d2 c3bc 87af c7bc c432 3e3d
00000020: b058 383c 8497 06bd 50c0 413d 2781 073c
00000030: e8c9 21bd 1256 a93c 7512 223c 1699 3c3d
00000040: 49a3 97bb 2d94 d5bc 29f2 333c c2f7 fbbc
00000050: aae7 a43c 6e19 16bc fbd7 4f3c d9e1 203c
00000060: 71f0 843c 09b6 013c 2c8b 82bc 6c11 b6bc
00000070: 5f8a 89bb a7e2 ee3b f2a3 44bd 6f62 ae3c
00000080: 95f2 85bc a566 f63c 9265 023d 8d4b a93c
00000090: 5278 0abd 6dca 363d 01eb b93c 66cc b23b
000000a0: a3b1 1b3d 0517 053d ef15 0d3d 22f2 2fbc
000000b0: 3b39 903b 7eca 71bd 0e9f 1fbc 98e5 92bc
000000c0: dc4f 363d bf6f 9abc 8e60 b7bc 99a7 6039
000000d0: ff1a 953c a2e1 513d 284f 85bc ff7b 073d
000000e0: 8cec bbbb 61a1 7f3c 2ca7 ef3c 2a58 5b3c
000000f0: f3d7 803d 3c56 653b 1917 983b e8c5 a1bc
00000100: 9307 d6bc e9bc 36bb dee7 063d 78f8 22bc
00000110: 1c4c 023d 30e5 053d 825b 843b ed52 893d
00000120: ce60 d83c f408 58bc 4980 6f3d 46f7 74bc
00000130: 29b0 e43b ee31 d2b9 55a7 7a3c dd15 c93b
00000140: 51cb 5d3d 6074 66bd b0f9 98bc e203 753b
00000150: f383 57bd 4494 6d3a 386e 04bd 5d3b 583b
00000160: 6bb2 8cba b74b 873b 29e5 a83c 51b8 a3bb
00000170: 7228 1d3d 3b27 f6bb 24ea ff3b b8d8 f2bc
00000180: 6bf2 993c 3466 dbbc 2d22 15bd a37c 913c
00000190: 602b bd3a 31ef d73c 7be6 9ebc 69bc 12bb
000001a0: 8ed1 033c 5c48 503d 94e4 ae3c d03e 813c
000001b0: 2747 9b3d 57f4 29bd caff 943d 1362 543c
000001c0: 95e1 693d d664 b53c 802d 883c 10d1 c93c
000001d0: 9e05 17bd 96fe 61bc 050d 683c 9f64 cfbc
000001e0: 3a90 d3bc 5255 4f3d 2e54 193c 520b 62bc
000001f0: 17a3 d0bc 38d5 7ebd ddad 1f3d b5f5 1a3c
00000200: 2853 853c d3b4 75bd 0587 bf3c d907 89bb
00000210: 8d17 0abd 3ba2 b7bc 373d 913c c860 173d
00000220: 8267 a6b9 b071 39bd 6a77 a0bc e5b1 8e3d
00000230: 92ac 5cba c8b8 87bc e818 7e3d 5964 ec3c
00000240: 17f9 8f3b 45c4 2e3c d139 0f3d 69ed 393b
00000250: 9a4e 87bc 9d52 563d 8880 0f3d 84c4 c73c
00000260: 44f7 5a3c cda9 bc3c 7b81 94bc ee2d 56bc
00000270: 368a 08bc 50ac 6abc 457c 3cbd bbdb 95bc
00000280: 1646 e23c 2899 4ebd 4a22 00b8 6146 2cbd
00000290: 5c26 393c d4d8 25bd e9f5 533d 0c9f 33bd
000002a0: 4c1e 323c e724 b93b 1fbe c93c 8231 04bc
000002b0: 90ff b0bc 630d 44bb 07d8 a93b 7951 58bd
000002c0: 720f ef3a 5fea 95bc 2fb7 52bc a078 d33c
000002d0: 4c51 ed3b 3843 8dbc 487c ba3c e4ec 8b3d
000002e0: ba5d 2a3d c374 18bd 23be 4f3d 2ed7 e1bc
000002f0: 003a d63c 21be b3bc bc31 633c 6351 00bd
00000300: b816 9ebc f1a4 1b3d d8d9 a33c 77d6 163d
00000310: 4e09 21ba 0325 ab3c dd4a 30bb 40b6 0bbd
00000320: a182 12bd 3b2c 8bbd 1a5b 10bd b8aa c63b
00000330: 2846 ffbb 85cd 593d 9876 b6bc 1e01 a3bc
00000340: 8463 09bd 242d c13c 1b5e 493d e49a 2fbd
00000350: 82cf 023d 45b3 7c3d 160f 8e3c 4f1e f63c
00000360: e1e2 f7bc ec59 803c e997 02bd 5dfb 2d3c
00000370: 4bfc 9b3c 59b0 c33a 2c00 063c 79de 88bb
00000380: 08d8 38bd 77ae 1a3d be51 e1bc 0d7b 6abd
00000390: 031f 973c f25c 513b 70ea 003d d253 30bd
000003a0: 9a4b 643c e156 07bd 5d6e 783c 0623 3fbc
000003b0: 3e78 203c b242 efbc f252 7cbb 599c e3bb
000003c0: d2df 883d d089 073d 6800 1bbc 83ed 3c3c
000003d0: ba6a 483c c417 b73b 8777 1ebd a17e d23c
000003e0: 9360 4abd e5f3 1d3b 6c51 fe3c e9df 97bc
000003f0: 81cb 083d 89af 04bc 6fc7 633d 4971 04bd
0.025911737 -0.03072352 -0.007827345 0.009091061 -0.057708535 -0.02390394 -0.02437569 0.046435133
0.0112516135 -0.03285934 0.047302544 0.008270538 -0.039499193 0.020670924 0.009892096 0.04604443
-0.0046276194 -0.026071632 0.010983028 -0.030757789 0.020129997 -0.009161336 0.012685771 0.009819471
0.016227933 0.007916936 -0.015935503 -0.022225104 -0.0041974033 0.0072902027 -0.048007913 0.021287171
-0.016351024 0.030078242 0.031835146 0.020665908 -0.033806153 0.044626642 0.022695066 0.005456495
0.038011204 0.032492656 0.034444746 -0.010738881 0.0044013537 -0.059031002 -0.009742511 -0.017931744
0.044509754 -0.018852113 -0.022384908 0.0002142474 0.01820135 0.05124057 -0.016273096 0.033077236
-0.0057349857 0.015602441 0.029254518 0.013387719 0.06291189 0.0034994027 0.0046414253 -0.01974769
-0.026126659 -0.0027883595 0.03293597 -0.009946935 0.031810865 0.032689273 0.004039229 0.0670527
0.026413348 -0.013185728 0.05847195 -0.014951533 0.0069790077 -0.00040091522 0.015298684 0.0061366395
0.054148976 -0.056263328 -0.018673748 0.0037386348 -0.05261607 0.0009062926 -0.032331675 0.0032994368
-0.0010734325 0.004128899 0.020617085 -0.0049963375 0.03836865 -0.007512001 0.007809894 -0.029644355
0.018792352 -0.026782133 -0.036409546 0.017759627 0.0014432482 0.026359173 -0.019397011 -0.0022390133
0.008045567 0.050850257 0.021349229 0.015777022 0.075819306 -0.041492786 0.072753504 0.012962836
0.057099897 0.022142809 0.016623259 0.024635822 -0.03687059 -0.013793608 0.01416326 -0.025316535
-0.025825609 0.050618477 0.009358449 -0.013796644 -0.025468392 -0.06221506 0.03898417 0.009457995
0.016275004 -0.0599869 0.023379812 -0.0041818437 -0.033713866 -0.022416225 0.017729385 0.036957532
-0.00031739107 -0.045274436 -0.019588191 0.069675244 -0.0008418049 -0.016567603 0.06203547 0.028856443
0.0043937075 0.0106669115 0.034967247 0.0028370267 -0.016516972 0.05232488 0.035034686 0.024385698
0.013364617 0.023030186 -0.018128147 -0.013072474 -0.008333733 -0.014323309 -0.04601695 -0.018293252
0.02762131 -0.05043903 -3.0549512e-05 -0.042059306 0.0113006495 -0.040489987 0.05174819 -0.04385285
0.010871481 0.005650151 0.02462679 -0.008068444 -0.021606237 -0.0029915206 0.005183223 -0.052812073
0.0018238856 -0.018300233 -0.012861057 0.025814354 0.0072423574 -0.017243966 0.02276434 0.06832293
0.04159329 -0.037220728 0.050718438 -0.027568426 0.026150703 -0.021941246 0.013866838 -0.031327616
-0.019297943 0.037999097 0.020001337 0.036825623 -0.0006143049 0.020891672 -0.002690009 -0.034109354
-0.03576911 -0.06795546 -0.03524313 0.0060628317 -0.0077903457 0.053174514 -0.022273347 -0.019897994
-0.03354217 0.023581095 0.04916201 -0.042872325 0.031936176 0.061694402 0.017341178 0.03004375
-0.030259551 0.015667878 -0.031883154 0.010619012 0.019041201 0.0014929875 0.008178752 -0.0041769114
-0.0451279 0.03776404 -0.027504798 -0.057246257 0.018447405 0.003194627 0.031473577 -0.043048687
0.01393404 -0.03304184 0.015163031 -0.011666065 0.009794293 -0.029206607 -0.0038501588 -0.0069461283
0.06683315 0.033090413 -0.009460546 0.011531237 0.012232477 0.00558755 -0.03868821 0.025695147
-0.049408507 0.0024101671 0.031044684 -0.018539386 0.0333972 -0.0080984915 0.055610117 -0.0323346

body.transformer_blocks.0.attention.linear_layers.2.bias f4 [70]
00000000: 4dfc 9a3c b43c 283c e0bc 56bc 4daa 983c
00000010: 58ba e5bb fe1d d1bc 6f28 b2bb e3c6 373c
00000020: 0204 86bc ddb1 b03c 4168 a3bb 3988 853c
00000030: 9e2a 34bb 410a b6bb d20f 743c 12b2 b23c
00000040: f079 833c 04a1 5d38 ddca 11bb f4ce 97bc
00000050: 0914 05bc b7af 65bc cd4a 833b 2549 413c
00000060: 59d6 4cba 71b0 22bc e2c0 cebc 395c 88bc
00000070: ee6a 21bc 6f5c c3bc 20fe 13bc a82a 983b
00000080: f72b 1bbc 683e b33c 1422 ad3c 0bca 5e3c
00000090: 63ff 293c 5448 b93c 33e2 94bc 6f15 353c
000000a0: 7e5e df3c 581f 95bb fc2b 97bc 65ba 90bc
000000b0: 549d d23c 03f4 653b 9cad 93bb 7057 9fba
000000c0: 4da2 a93c 5d45 b6bb fe43 dfbb ca09 ddbb
000000d0: 51bc 7e3b b466 c43c d50e 50bc 1b30 f83b
000000e0: 9d02 773c 9edb a0bc 4e36 1ebc c6e7 843c
000000f0: 88b6 a33b e2b2 343c 2975 3b3c 3a93 ccbc
00000100: 5b24 16bc 6cc0 eabb dca4 ad3b 6af1 a2bc
00000110: 367b 483c ba7c 2f39
0.018919135 0.010268379 -0.013106555 0.018635893 -0.0070107393 -0.025526997 -0.005436949 0.011216852
-0.016359333 0.021569187 -0.0049867933 0.016300308 -0.0027491222 -0.0055554216 0.01489635 0.021813426
0.016049355 5.2840463e-05 -0.002224616 -0.0185313 -0.008122453 -0.014018944 0.0040067197 0.011797224
-0.0007813923 -0.009929762 -0.025238458 -0.016645538 -0.009852154 -0.023847787 -0.009032756 0.004643757
-0.009470931 0.021880344 0.021134414 0.0135979755 0.01037583 0.022617497 -0.018174266 0.011052473
0.027266737 -0.0045508556 -0.01845359 -0.017667005 0.025709786 0.003508807 -0.00450678 -0.0012156796
0.020707274 -0.005562468 -0.006813525 -0.0067455517 0.003886957 0.023974754 -0.012698849 0.007574094
0.015076307 -0.019635972 -0.009656502 0.0162238 0.0049961247 0.011028977 0.011441507 -0.024972547
-0.009163941 -0.0071640518 0.005299194 -0.019890506 0.012236407 0.00016735765

body.transformer_blocks.0.feed_forward.w_1.weight f4 [70, 70]
00000000: 2fec 2dbd a9b1 f1bc cb29 ee3b d1b6 243c
00000010: 1c04 98bc 4adf a33c c44d 09bd 597f f93c
00000020: dc82 cb3c bb87 2cbd 0d27 8abc 6f8e 723d
00000030: 0689 d53b 7694 fabb e49a 35bb 6d14 90bc
00000040: 5d00 e43c 69ae c73b 0b74 59bc 95e9 063d
00000050: 12d9 ba3c 2190 d8bc 456c 6c3c 2a05 973c
00000060: ed29 0c3d 0a14 44bd 7416 66bd 93d6 1fbd
00000070: c9a6 073d abb0 143d 50de f13c 47c3 a0bc
00000080: cbb3 09bd 1f75 d73c f32d dabb 2dba 4ebd
00000090: 4ac5 42bd 6ef8 afbb 795c bbbc 5529 bc3c
000000a0: 3742 b23b 86d6 a83c ac8d 24bd 801a 1ebc
000000b0: a8aa 983b b6db 84bc 768e 22bd 3b5e 083d
000000c0: 1449 fb3c 59b5 b0bb 42bc 8a3c e927 ebbc
000000d0: 6272 04bd ca93 8ebc 999e 773c b9f9 4c3c
000000e0: b918 913c a064 cf3c 18da 533d 380e bc3c
000000f0: d82d 50bd d5eb 073d c0f6 3ebd 7ca3 b9bc
00000100: 5697 39bc 91ff eebc ae26 cb3b 3c43 1ebc
00000110: 3a96 cd3c 68f4 ae3c f424 a1b9 9680 3dbc
00000120: 8749 b63c 27bf f93c 89d2 593b 7b08 e13c
00000130: c63b 1abd 7b23 c2bc 3999 a5bd 1243 50bc
00000140: fa10 32bc 41b7 93bb d849 0dbc e059 223d
00000150: 0558 0fbd 7f06 683d 9c13 9dbb b487 11bd
00000160: 50ec 7dbc 7a71 30bd d447 d03c 154f debb
00000170: 8761 61bd 36d7 0ebc 93f9 643d 2500 69bc
00000180: f78c a7bc 9d67 ffbc cd28 f13c 5d76 863c
00000190: 4ce4 153d 9695 54bd 6e57 fdbc f640 a23c
000001a0: d660 d33c 699c 583c e581 29bd 9b5c cf3c
000001b0: 708b 7fbc 031d 5a3d 8369 a63c c7cb 5cbd
000001c0: 986a 7dbc 82b6 613c 9bc8 c6bb af91 81bc
000001d0: df29 fd3c 72b6 1c3d a2fc c73c 9b26 1cbd
000001e0: 01a2 313d 7788 a0bd 3d57 733c 889f 09bc
000001f0: 9938 be3c aad8 d03c 84fa d9bc 89c1 babc
00000200: 3e74 7c3c 5551 8f3b 3375 38bd 46f6 523c
00000210: d578 79bc 7070 4cbd cd73 1cbc a5e8 b93c
00000220: 3346 3fba d377 363d b146 b93c 3d34 53bb
00000230: 3bdf 1dbd 554f 8e3c a629 fe3b 8fee b6bc
00000240: aa84 e2bb f5b1 13bd 1f95 4ebc d4d8 2a3d
00000250: 227f 293a b43f 59bd 9c59 00bd 3a78 7bbc
00000260: 7cf4 06bc 02d4 49bd bf8c bf3c 566a 563d
00000270: 8e8f b7bc b3bc c93c 299e f33b 98ee 003d
00000280: 5b88 a2bc 1634 4d3a 2e5f 5ebc 0aae bcbb
00000290: c3b8 603c 33b5 64bc ded2 0e3d de0c f1bb
000002a0: c402 32bc a7bf 553c 1e43 33bd e8a1 613b
000002b0: 1f5d ffbb 383e 093d 9f50 35bb 88b8 7f3c
000002c0: 1990 3ebc 7562 eb3c afde a93a feac ebbc
000002d0: beb8 a6bc 2d4c f93c f2e7 0cbb 874c 84bc
000002e0: 622e d8bc d5a5 293d 31fa 773c a5d2 52bd
000002f0: 2923 233c b8e2 333d 3b0a b9bc afc7 613c
00000300: 6f6b b23d 1db3 f13c 08a5 42bd a919 28bd
00000310: 6ae8 1fbd c75a f83c f3b1 583c 806a 0fbd
00000320: dc54 83bc a99d a0bc f1f6 d33c 2be5 663c
00000330: a09e f13c 8743 cfbc 0c7c fe3c 448d f7bc
00000340: e2be 923c 57bd b4bb 3d18 2c3c b80c aa3a
00000350: e6e4 d73b cebb f73c 6919 0d3c 3beb 07bd
00000360: 8e66 7abc 4d72 e63c a239 f2bb 203f 013c
00000370: 9b7f bd3c 73c5 c9bc e4b0 f63b 9845 113c
00000380: bad3 40bb f131 183d 7ce1 7b3c 8383 aa3a
00000390: 4bdd 31bc 9411 ad3c c2bf ea3c 44c8 a43c
000003a0: ec5e 1c3d a70b 173d bd62 fa3c 4de2 1a3c
000003b0: bb0e 1e3d 9cec 79bc fb52 07bd 64fe 94ba
000003c0: 639a c23c 94fd 343c fd6a 88bc cc84 86bc
000003d0: a04d fcbb 09e3 0c3d 09c7 a33c 7815 2f3d
000003e0: 004c e6bb 72f3 aabc 196d 0b3d 0244 313d
000003f0: 61db e53c 8363 a13a a8d8 b43a 85b2 933c
-0.04246157 -0.02950366 0.0072681657 0.010053352 -0.018556647 0.020003933 -0.03352143 0.030456232
0.024842672 -0.04212163 -0.016864324 0.059217867 0.0065165786 -0.0076470925 -0.002771073 -0.017587865
0.027832204 0.0060937894 -0.013272296 0.032937605 0.022808585 -0.026435914 0.01443011 0.01843508
0.03421967 -0.047870673 -0.056173757 -0.039022993 0.033118043 0.036301296 0.029524952 -0.019624365
-0.03361873 0.026300965 -0.0066583096 -0.05047052 -0.04755143 -0.0053701913 -0.022871243 0.022968927
0.0054400223 0.020610105 -0.04017417 -0.009649873 0.0046590157 -0.016218048 -0.039686643 0.03329299
0.030674495 -0.005392712 0.016935471 -0.028705554 -0.032335646 -0.017404456 0.015113496 0.01251071
0.017711984 0.025316536 0.051721662 0.022955999 -0.05082497 0.03318389 -0.046622038 -0.022660963
-0.011327585 -0.029174598 0.0061996793 -0.009659585 0.025096048 0.021356776 -0.00030735845 -0.011566302
0.022251857 0.030486656 0.003323706 0.027469864 -0.03765466 -0.023698559 -0.080858655 -0.012711303
-0.010868305 -0.0045079296 -0.008623563 0.039636493 -0.03499605 0.05664682 -0.0047935974 -0.035529807
-0.015498236 -0.04307697 0.025424875 -0.0067843297 -0.05502465 -0.0087183025 0.055902075 -0.014221226
-0.02045296 -0.031177336 0.0294384 0.016413862 0.036594674 -0.05190047 -0.030925479 0.019806366
0.02580301 0.013220885 -0.041383643 0.025312712 -0.015597209 0.053250324 0.020313984 -0.053905275
-0.015467308 0.013776423 -0.0060663945 -0.015816538 0.030903755 0.03825993 0.024412457 -0.038122755
0.04336739 -0.078385286 0.014852342 -0.008399852 0.023220347 0.025493938 -0.026608713 -0.022797363
0.015408574 0.004373709 -0.045033645 0.012876099 -0.0152265625 -0.049911916 -0.009549093 0.022693941
-0.0007296532 0.044547867 0.022616716 -0.0032227181 -0.038542967 0.017371813 0.0077564297 -0.02233055
-0.0069127874 -0.036058385 -0.012608795 0.04171069 0.00064657826 -0.053039268 -0.03133546 -0.015348488
-0.008237001 -0.049274452 0.023382543 0.052347504 -0.02240732 0.024626112 0.0074346256 0.03147754
-0.01984041 0.0007827891 -0.013572497 -0.0057580518 0.013715926 -0.013959217 0.034869067 -0.00735627
-0.010864917 0.013046182 -0.04376518 0.003442878 -0.0077930833 0.033506602 -0.0027666462 0.0156079605
-0.011631035 0.028733471 0.0012960042 -0.028769013 -0.020351764 0.030431831 -0.0021500555 -0.016149772
-0.026389305 0.041417915 0.015135334 -0.051470418 0.009957113 0.043917388 -0.022587886 0.013780518
0.087118976 0.029504353 -0.047520667 -0.041040096 -0.039040007 0.030316724 0.01322602 -0.035013676
-0.016031675 -0.019606428 0.025874587 0.014092724 0.029494584 -0.025300754 0.03106501 -0.030218728
0.017913286 -0.005515735 0.010503826 0.0012973761 0.006588566 0.03024092 0.008612015 -0.033183318
-0.01528324 0.028130675 -0.0073921243 0.007888585 0.023132136 -0.024630284 0.007528411 0.00886669
-0.0029423074 0.037157003 0.015373584 0.0013009164 -0.010855983 0.021126546 0.02865589 0.020115025
0.038176462 0.036876347 0.03056466 0.009453368 0.038588267 -0.015254166 -0.03303812 -0.0011367318
0.023755258 0.011046786 -0.016652578 -0.016420744 -0.0076996833 0.034396205 0.019992368 0.042745084
-0.007028103 -0.020868037 0.03403959 0.043277748 0.02805871 0.0012312982 0.0013797479 0.01802946

body.transformer_blocks.0.feed_forward.w_1.bias f4 [70]
00000000: 1012 1c3c b3a6 b93c 6b7e a73c 0ccf 093a
00000010: 25b5 003c acab ab3c 3e72 cf3b 5e95 893c
00000020: b2a9 063d 99d3 c93c 5c97 b63c de41 9e3c
00000030: 5a4b f33b ae22 b83b 97ed 843c 7d50 7b3c
00000040: b822 063d 450b ab3c d3e3 b83c 8eb4 a93c
00000050: d752 e23c 569f 963c 10de bf3c 0f74 bb3c
00000060: aba0 693b b54e c53c dba0 153d d1a7 933c
00000070: b84c 983c 36c1 3f3c 051a 073d b56e a63c
00000080: 7ecf cd3c fcc5 3c3c a57f f33b 623b b63c
00000090: 4645 903c a1ee 0a3d feb0 ae3c 892c d13c
000000a0: 250c 8e3c d7d3 d53c 3e6c a03c b0d7 9d3b
000000b0: 6957 be3c e448 ac3c 0ebc b33c 70bb 293c
000000c0: 084f da3c fbed 923c 4059 a13c 98ad a33c
000000d0: 6188 da3c 54c3 ca3c 8e57 883c 803f 843c
000000e0: ede0 b03c 8f21 b73c bf76 993c 9131 8f3c
000000f0: 27f3 083d 3f20 ac3c ed47 883c 4c4a a53c
00000100: 92ac 843c 02e4 873c 0706 c33c 2e8f e23c
00000110: 6489 743c ef17 b73c
0.009525791 0.022662496 0.020446023 0.00052569876 0.007855688 0.020955883 0.0063307574 0.016794857
0.032876678 0.02463703 0.02228897 0.019318517 0.007424754 0.0056193685 0.016226573 0.015339014
0.032747954 0.020879397 0.022569573 0.020715978 0.027627392 0.018386524 0.023421317 0.02288249
0.0035648744 0.024085382 0.036530357 0.018024357 0.01859127 0.01170378 0.0329838 0.020316461
0.025123354 0.0115218125 0.007430988 0.022245113 0.017611157 0.03391898 0.02132463 0.025533931
0.017339775 0.02610199 0.019582864 0.0048169717 0.02323504 0.02103085 0.021940257 0.01035963
0.026649013 0.017935744 0.019695878 0.019980237 0.026676359 0.024751343 0.016643312 0.01614356
0.021591628 0.02235487 0.01873338 0.01747969 0.033435013 0.02101147 0.01663586 0.02017703
0.01619557 0.016588215 0.023806585 0.027656164 0.014925335 0.02235028
